models/simple_cnn.pth (torch, 54393 bytes, 6 tensors)

conv1.weight f4 [16, 1, 3, 3]
00000000: 00c3 cebd f7c1 cf3e 4ac6 8bbe 5b58 81be
00000010: 44b0 993e 1ea1 a13e 06e7 d7bd ef09 12bf
00000020: 0571 5b3e 3843 0a3f b293 c4be 0830 d6be
00000030: 6492 a43e 76ff eabe dd6d c0be 4622 bf3d
00000040: 7c20 cd3c 862f 2cbf 7e1d 813e 14c2 003f
00000050: 5ff3 12bf e995 9e3e 2a6c a53d 5b96 34bf
00000060: 97d4 e83e 746e c0bd c9dd 8abe e243 973e
00000070: 13af d53e 635f 05bf 9d95 cbbe 8b46 363d
00000080: c286 3e3e a0c5 1fbd 3acd 393e d7f1 df3d
00000090: 5c7c abbd 953e 843e 6b7d 033e 9dd5 5b3e
000000a0: 7e2b fc3e 7be7 ba3e bd53 5fbf 8c0b edbe
000000b0: 0828 59bd a6fa 29bd 8d9e b23d 8fce ab3e
000000c0: 8a36 03bf 153d 77bd 4c00 d33e e24b f7be
000000d0: 3dc0 a7be c88f 173f 5918 423e f4b0 75bc
000000e0: 3bd4 e7be 04e3 8d3e af52 803e 0a7f 9b3e
000000f0: d22d 58be 9869 37be 86ef 363e c377 723e
00000100: 7c54 c23e 3572 b83d 7c99 9dbc f2b8 c33e
00000110: 81ea 9d3e 2510 47be a25e 47bf 8586 b9be
00000120: 036a b5be 5f8d 82bd 789e 6a3d 89e5 05bf
00000130: 50e6 07bf 6b00 3cbf 4353 b13d 6b10 d63e
00000140: a576 6f3e 6ded 9fbe 1f52 1cbf d7a7 07bf
00000150: 0930 8cbd 0f61 753d b370 443c 8a25 9a3e
00000160: 40e1 f03e 3b49 883e 8e14 79be 0e27 b3bd
00000170: ef4e 893d 753d 02bf 2071 a83d 75d2 b23e
00000180: 9f3d 133e 02f4 043f b172 1cbe a445 443e
00000190: 673f 39be d919 acbd f45d 72bd ff76 8b3e
000001a0: 6d57 6c3e a8b6 5b3e 1eea 2bbe 4753 8b3e
000001b0: fd8b a5be 0d63 00bf 34a0 1abe 19a5 babe
000001c0: c4e0 65be 99c1 623e 7b12 353e e98f 1b3f
000001d0: 8bf3 b03e 0259 5ebc 2947 42bf a460 46be
000001e0: 625b 203f 61ea 26be d038 23be 7594 333e
000001f0: 3e39 893e b528 5d3e 7d9c 31bd ced1 1abf
00000200: 384d 17bf ea24 d43e f560 ba3e c48f 00bf
00000210: 65b1 3c3e 8f7a 293f fc4c f5bc 9f6e 9cbe
00000220: e30f c9be 9e50 863e 4487 e1be c7d3 c63e
00000230: cd93 163f 3dfc f2bd fb5c 1bbc 9a4e 1dbe
-0.10095787 0.4057767 -0.2729972 -0.25262722 0.30017292 0.31568235 -0.10542111 -0.5704641
0.21429832 0.5400882 -0.38393933 -0.4183352 0.32142937 -0.45898026 -0.3758382 0.09332709
0.025039904 -0.67260015 0.25217813 0.5029614 -0.57402605 0.30973747 0.08077271 -0.70541924
0.45474693 -0.09396067 -0.27122334 0.29543978 0.41735134 -0.52098674 -0.39762583 0.04450087
0.18606094 -0.03900683 0.18144694 0.10934799 -0.08373329 0.25828996 0.12840812 0.21468206
0.49251932 0.3650473 -0.8723715 -0.46297872 -0.053016692 -0.041498803 0.087216474 0.3355603
-0.51255095 -0.060360987 0.41211164 -0.48300081 -0.32763854 0.5920377 0.189546 -0.014995802
-0.45279106 0.27712262 0.25063083 0.3037036 -0.21111229 -0.17911375 0.17864808 0.23678498
0.3795508 0.09006158 -0.019238226 0.3822704 0.30842975 -0.19439752 -0.77878773 -0.36235443
-0.35432443 -0.06374621 0.057280034 -0.5230337 -0.53085804 -0.7343814 0.08658459 0.418094
0.23385103 -0.3123583 -0.61062807 -0.5299048 -0.068450995 0.059907015 0.01198976 0.30106765
0.47046852 0.2661837 -0.24324247 -0.087476835 0.067045085 -0.50875026 0.08224702 0.3492619
0.14378975 0.51934826 -0.15278126 0.19167191 -0.18090592 -0.084033675 -0.059171632 0.27239224
0.23080225 0.21456397 -0.16788527 0.27211973 -0.32333365 -0.5015114 -0.15100175 -0.36454085
-0.22449023 0.22144164 0.17682831 0.60766464 0.3456081 -0.013571026 -0.7588983 -0.19372803
0.6263944 -0.16300346 -0.15939641 0.175371 0.26801485 0.2159756 -0.04336213 -0.60476387
-0.591022 0.41434413 0.36402097 -0.5021937 0.18427046 0.66202635 -0.029943936 -0.30553147
-0.39269933 0.2623338 -0.44048512 0.38833448 0.58819276 -0.11864517 -0.0094826175 -0.15362015

conv1.bias f4 [16]
00000000: 9452 0ebe f7b2 893e 0a38 35bc 30b7 9ebe
00000010: 3aca 43bd 5079 b2be 85bf 79be b0f3 833d
00000020: 5bbc 953d 3571 3b3e 8098 4cbe c545 b6bd
00000030: 99f4 b9bd 25d7 d3bc 7c83 aebd dc23 d6bd
-0.13898689 0.26894352 -0.011060724 -0.30999136 -0.04780028 -0.3485818 -0.24389465 0.06442964
0.073113166 0.18304904 -0.19980049 -0.08900026 -0.090798564 -0.025859425 -0.085211724 -0.104560584

conv2.weight f4 [32, 16, 3, 3]
00000000: 1878 d8bd d741 26bd cb99 25bd 931c dabd
00000010: 6f0e bbbd 16c5 55bc e83c 13bc 9cbb 1fbe
00000020: 597c 21bd 34d2 be3c 35fe b8bd 889f e4bd
00000030: c9b7 4fbd a642 e6bd 8d30 acbc 4dd1 57bd
00000040: 2131 e2bd 233e bcbd 73e6 8abd a4c9 bfbd
00000050: 4dcd 8d3d 5b1b babc e32e c4bd 4557 dfbd
00000060: 87a6 cbbd 3555 4d3c 5f79 ccbd 5f09 8bbd
00000070: 480d ecbd 5f02 dcbc 3a7e 62bd 155d a2bd
00000080: 5b5b 993d fba8 303b 725f c6bd 1481 c2bc
00000090: d563 debd 7fa5 b9bc 38c8 293d 13d8 fdbd
000000a0: 2b76 f43c 894a c4bb b09f 303c cbcd ebbc
000000b0: a874 74bd 62db d3bd ae89 1cbd 33b1 293d
000000c0: 4605 28bd 817c 313c ecfb 463d bf41 68bd
000000d0: c208 32be a241 693c 835d 27bd 6f9f 4f3b
000000e0: 748a 17bc 9d56 843c 2274 533d 8a2e 493d
000000f0: af0b 1a3d 3008 9dbd 5099 ae3c cdcf f0bd
00000100: f281 143b 0b82 94bd fae9 dcbc 18ca a53c
00000110: ede7 babc b2f9 c6bd cc7b c4bc 79ac aabd
00000120: f2e0 31bd 0169 f0bd d697 24bc 52bd f3bc
00000130: b292 de3c 7dce 02bd 9bd8 82bd 67d5 e9bc
00000140: 9d90 e1bd 1c2e 58bc 53e9 62bc 8bdb cebd
00000150: 2e99 c2bd 7770 15bd 536f 86bd ae5a 29bd
00000160: d4b6 a7bc 3368 bc3c 95d1 3abd 4c79 11bd
00000170: a364 083d de94 16bc 1121 25bd 0583 563d
00000180: 004a f9bc 0ace c4bd 6119 47bd 64cf 503d
00000190: f9da 97bd e3d4 cdbd 2500 473c 4bb3 28bb
000001a0: 4b1f 9abd 2383 36bd 8bb9 213d 7715 66bd
000001b0: 16c9 3abd 0272 243c 011c 173d 7641 4b3d
000001c0: df94 1e3d e50b f03b a430 003d 0a54 40bc
000001d0: 1b5f 323d 8c92 e7bc 7e97 4b3d 5061 b53c
000001e0: d1e2 bdbc 6c29 b6bd 6f12 03bd 7c4b b13c
000001f0: ffc5 953d 66ba 063d 7c16 8e3d 54c9 053d
00000200: 4076 d13c ff43 60bd ac39 9b3d dc7b 60bd
00000210: d8a8 70bd ebcf 0fbd 4e75 333c 3ce2 9c3c
00000220: 1cc4 73bd 9ab3 b3bd 7a88 51be aa5c b0bd
00000230: 33d1 97bc c885 07bd de1d 6cbc b4db 2abd
00000240: 795b 8b3d 9d1e 01bd 4135 40be c61a 913c
00000250: b0c1 65bc 09b3 eb3d 4a23 da3d acbe 43bd
00000260: 3343 583d 43ff e0bd fee2 563d a01d ee3d
00000270: 5c8a 83be 35cf 8abe e7ca 593e 9f1d 80be
00000280: 9256 f5be b085 7bbd 2c41 61be bcb9 153e
00000290: cef6 4f3e 1bf0 83be 3046 ac3d 0e95 1e3e
000002a0: 584f 02bf 2ad0 0cbe 6a9d 253d c7b6 833e
000002b0: 4f3c 4e3e b1e6 abbd 1500 50be e2a8 afbc
000002c0: efc0 ebbc 941c 713d b329 74bd 7307 8f3d
000002d0: 273d 32be edf2 a4be 9c21 a9bd 3eb8 313e
000002e0: 7914 c1bd cbb1 debc 2747 2d3e e8fa abbc
000002f0: a5be f73d abab 993d fedf 08bf cbb3 9ebe
00000300: b1c3 003d cb23 69be 2ec9 f4bd e1b6 e7bd
00000310: e84a 8fbe 0aea 93be a05f 473d e3a0 033e
00000320: b9b7 3bbe 6162 953d 4b0f 803d d045 b5bd
00000330: 881a e43d c1dd 1c3e 7c04 af3d 3092 2ebe
00000340: ecd0 0f3e bae4 c3bd bfc5 2d3d 34a4 30bd
00000350: 1216 443b 2276 093e de55 3c3e d63b a53e
00000360: 752d edbd ee98 39be fc9f f43d 04b1 86be
00000370: 8db1 a93c f8a3 043e f60f 1d3e a4d4 9ebe
00000380: c182 1fbe ccff 97be 1ea0 353e c81c 023e
00000390: 5d56 43be 21d2 853c ad03 74bc 8447 b4be
000003a0: 4f9d 093e 476a e33d 4250 b43d 0039 1fbe
000003b0: bec3 163e c246 7fbd c01f 11be 9091 f03d
000003c0: f5ed bdbd b9dd 6dbe e79a 0fbd 89c1 cf39
000003d0: 0ee1 2c3e d01b 7cbe a6f8 4d3d f482 ba3d
000003e0: b68e 973a aaa1 3e3d 5737 cd3d 88a7 0d3e
000003f0: 503a e9bb d7b4 85be 4adb 673d a8cc c0bd
-0.10569781 -0.040590134 -0.04042987 -0.10649981 -0.09133612 -0.013047477 -0.008986689 -0.15598911
-0.039425228 0.023293592 -0.09032861 -0.11163241 -0.05071238 -0.11243181 -0.021019245 -0.05268984
-0.11044527 -0.09191539 -0.06782236 -0.09364632 0.06923924 -0.022718122 -0.095792554 -0.10905317
-0.09943872 0.012532522 -0.09984087 -0.06788897 -0.11525971 -0.0268566 -0.05529616 -0.0792791
0.07488128 0.002695619 -0.096861735 -0.02374319 -0.10858885 -0.022661922 0.04145071 -0.123947285
0.029841503 -0.0059903306 0.01078026 -0.028784653 -0.059681565 -0.10344578 -0.03821724 0.041428756
-0.041020654 0.010832907 0.048580095 -0.056703325 -0.17386153 0.0142368395 -0.040860664 0.0031680723
-0.009249318 0.016154582 0.051624425 0.04911665 0.0376088 -0.07667577 0.02131334 -0.11758385
0.0022660461 -0.07251366 -0.026967037 0.020237967 -0.022815669 -0.09715594 -0.023984812 -0.08333678
-0.043427415 -0.11738778 -0.010045966 -0.02975336 0.02716956 -0.031935204 -0.063889705 -0.028544141
-0.11013911 -0.013194587 -0.013849574 -0.10100468 -0.09501873 -0.036484208 -0.06564202 -0.041346245
-0.020472921 0.022998905 -0.04561003 -0.03551607 0.0332991 -0.009190766 -0.040314738 0.052371044
-0.030430794 -0.09609611 -0.048608188 0.050979033 -0.074148126 -0.100503705 0.012146031 -0.0025741633
-0.075255 -0.044558655 0.03948359 -0.056172814 -0.045601927 0.010036947 0.03689194 0.049622975
0.038716193 0.0073256367 0.031296387 -0.0117387865 0.04354773 -0.028268121 0.04970502 0.022141129
-0.023179444 -0.08894619 -0.032 0.021642439 0.073131554 0.032892607 0.06937882 0.032662705
0.025569081 -0.054752346 0.075793594 -0.05480562 -0.058754772 -0.035110395 0.010953261 0.019150846
-0.059513196 -0.08774491 -0.20462218 -0.08611424 -0.018532371 -0.033086568 -0.014411418 -0.04171343
0.068045564 -0.031523336 -0.18770315 0.017712962 -0.0140232295 0.115087576 0.10651262 -0.04778926
0.05279846 -0.10986187 0.05246257 0.11626744 -0.25691497 -0.2711121 0.21268807 -0.250226
-0.4791761 -0.06140679 -0.21997517 0.14621633 0.20308992 -0.25769123 0.08411825 0.15486547
-0.5090232 -0.13751283 0.040433325 0.25725386 0.20140193 -0.0839361 -0.20312531 -0.021442834
-0.028778521 0.058865145 -0.05961008 0.06983843 -0.1740614 -0.32216588 -0.082583636 0.17355439
-0.09427733 -0.027184388 0.16921674 -0.020993665 0.120969094 0.07503446 -0.53466785 -0.30996546
0.031436626 -0.2276756 -0.119524345 -0.11314178 -0.27986836 -0.28889495 0.04867518 0.12854342
-0.18331803 0.07294155 0.06252917 -0.08851206 0.11137873 0.15318967 0.08545777 -0.17047954
0.14044541 -0.095651105 0.042424913 -0.043125346 0.0029920381 0.1342397 0.1839213 0.32272214
-0.11580936 -0.18124744 0.11944577 -0.26306927 0.020714546 0.12953174 0.1533812 -0.31021607
-0.15577222 -0.29687345 0.17736861 0.12706292 -0.19075914 0.016335549 -0.0148934545 -0.35210812
0.13438915 0.11104255 0.088043705 -0.15549088 0.14723107 -0.06232334 -0.14172268 0.11746514
-0.09273902 -0.23229112 -0.035059836 0.00039626312 0.16882727 -0.24619985 0.050285958 0.091070086
0.0011562917 0.046540894 0.10020321 0.1383344 -0.007117547 -0.26114532 0.056605615 -0.09414035

conv2.bias f4 [32]
00000000: 90b5 38bd 61b1 73bd c0e6 ab3d 7a49 64be
00000010: af0c 99bc 2903 c4bd 139d 01bd 6fab f5bd
00000020: 102d 073d d0eb abbd f2ef c43d f473 b0bd
00000030: c999 29be 5312 64bd be95 813c 36e1 fabd
00000040: 5305 efbd 8bb2 09bd 1bae 663d b665 03be
00000050: 055e 55bd caaf 053d a7ce bebd f945 54be
00000060: ddb6 f8bd 9d20 adbd 7275 10bd 5721 0ebe
00000070: c66a 71bc e5f2 28be c91b b93d a706 d2bd
-0.045095026 -0.059495334 0.083936214 -0.22293654 -0.018682806 -0.09570915 -0.03164394 -0.11995589
0.03300196 -0.08394587 0.096160784 -0.08615866 -0.1656257 -0.055681538 0.015818473 -0.12249987
-0.116709374 -0.033617537 0.056318384 -0.12831768 -0.052091617 0.03263835 -0.093167596 -0.20729817
-0.121442534 -0.08453486 -0.035268255 -0.13879906 -0.014734929 -0.16498907 0.09038503 -0.10255175

fc1.weight f4 [10, 800]
00000000: 3732 7f3d 29d5 6c3d a889 9b3d 2520 7a3d
00000010: 83ff c03d ef1c cb3d 9368 fd3c e5ef 82bc
00000020: da2c 233d 42ab 5a3d 570a 293d feee ccba
00000030: 6c6c 353d 5775 e53c bff7 ae3d 3b28 7c3d
00000040: e60f ac3d 042a ad3d ef11 3c3c 5d0a 4b3d
00000050: 6688 d73d 106c 863d ed20 443d d990 813d
00000060: 7ec4 443d d75b a03c 2aff 31bc 6051 b73e
00000070: e685 773d 54f6 16bd a890 053b 249e a8bc
00000080: a34e 1dbe 94b2 333d f38b ab3c efb9 9cbc
00000090: 1504 9f3d d259 b5bd 3eab efbc dbe7 c0bd
000000a0: 188a 2cbe 5e8f eb3d 5d55 e63c 5721 08be
000000b0: 0339 5c3e 1616 ab3c 9c4f 54bd c0f5 d0bc
000000c0: a45a 2fbe f522 10be 8461 c2bd 2df3 f7bd
000000d0: 3943 21be b73a 25be 7739 2c3d dc37 083d
000000e0: c55f fa3d 5ee1 50be 4c87 933b df71 b03d
000000f0: 2703 253d 9a43 873c 9720 b23d 0c77 0bbe
00000100: 46a9 f03b c171 d0bb 8145 a03d 6764 203e
00000110: 7cb4 3dbe 0d61 2c3e d99f 393e 6263 383e
00000120: 8813 fcbd 8cf5 a0be 5b84 b8be 50b5 a6bd
00000130: 7f68 44bc 1aee 7b3c b38a 153e 94b4 3d3e
00000140: 5b49 acbc ffed 07bc ad42 173d 195d 09be
00000150: 4b49 d43d ba6a a93c a6ea bc3b 39ee 603d
00000160: 8a8b 91be 3dfe 0a3d 009b 84bd a6ef a8bc
00000170: 059c 93bd 5314 18be 6cff dbbd d5d7 aa3d
00000180: b9c1 1bbe 3b35 a93d 470f 013e 4f4f bf3d
00000190: 9b19 a9bd 2c33 65bd 6143 2d3c 5dae 33be
000001a0: a69d debd 3a02 cfbc 7f6a 03bd e0f5 d23d
000001b0: 847a 34bd c0ee 4dbe 7b45 613e efaa 5dbc
000001c0: e508 203e e8e6 78be 6c56 1e3e cb7a a3bd
000001d0: 43f8 ab3d e2b4 37bd ea82 443d ed97 8e3e
000001e0: 43ac bf3c 3919 7dbe 1f9b 7c3e 55f4 253c
000001f0: 535b a3bd a0f4 8dbe 16b3 64be 033c 953d
00000200: 5319 9d3d 51fc 893d 2c0e eebd 2850 0abe
00000210: 37c4 f93d db28 fa3d 2bd0 283e 9782 ac3d
00000220: 6074 93bd 900f 983d 4186 03bc dedb c03d
00000230: d87a 063e b775 39bd 0a59 b2bd 7555 09be
00000240: bbb2 cdbd bc94 813d 025f 243d 96c5 903d
00000250: b496 d2be 87c0 2cbf 9abd 1d3e ae51 9bbe
00000260: 73ad 78be f560 7cbe 22fc ccbe 1191 603c
00000270: 6292 9cbd 45ab 533d 123c a2be 1d47 ddbd
00000280: a95f a4be 7ef0 22bd 956e 2f3e 557a b23a
00000290: 3f93 ff3d b40e 58b9 280f f4bd ae5e 293e
000002a0: a033 a03d e643 273d 7d2b ddbc eb15 1dbe
000002b0: 7cfd 3a3e 8f47 80bd 7c1c b03c df9a 0c3d
000002c0: 2f2b 74bd fe86 833d 80a2 4bbd 7a20 bcbb
000002d0: cc29 cabe 174c 0bbe b266 12be 3397 87be
000002e0: a74e 93be b535 28be 8745 98bd f56d b7bd
000002f0: d416 d4bd a166 cebd cb27 d4bc 6f81 863d
00000300: badc f7bd 0981 32be f96a c83d 6fd5 083d
00000310: b50a 35bc 03e8 13bd d6d5 5f3c 2b6c e03d
00000320: 55be acbe 2b29 b5bd ff12 553d 8b2d aebd
00000330: 3c9d 893c d0e1 16be 364f 64be a38c ebbd
00000340: 5190 46bd c7fd ba3c 9592 ccbe e644 f3be
00000350: dfaf 2c3e 569f 043e b29f ec3d 1e5a d3bd
00000360: 8076 bbbe e942 fabd 8adc 4cbe 9696 3e3e
00000370: 605a 1fbd f626 8abd de34 7dbd f601 8ebc
00000380: f0d6 cebc 99a2 b93c d9b0 7dbd 2bc5 96bd
00000390: b742 123d 029d 9d3d 9ffa 5b3e 9191 7e3d
000003a0: 1d51 403d d347 96bd 0b72 44bc 997f 7a3e
000003b0: d02f 203d c6b2 71be 4117 c7bd 77f2 86bd
000003c0: 0ce2 2ebe dc37 04be b80e dfbc 169d 793c
000003d0: 2ef4 29be 233e 07bf f183 e3be 7590 a1bd
000003e0: d0b4 133e 9bc2 cb3d 16e3 dc3d 873b 16be
000003f0: 1e60 52be 88e4 92bd 4483 31be b930 36be
0.062303748 0.057820473 0.07594615 0.06106581 0.09423735 0.09917628 0.030933654 -0.015983531
0.039837696 0.05338598 0.041269626 -0.001563519 0.044292852 0.028010054 0.085433476 0.061561804
0.0840147 0.084552795 0.011478885 0.04957043 0.10524063 0.0656358 0.047882963 0.063264556
0.048038952 0.019575043 -0.0108640585 0.35804272 0.06043043 -0.03685601 0.0020380411 -0.02058322
-0.15362029 0.043871477 0.020940756 -0.019131629 0.077644505 -0.088550225 -0.02925646 -0.09419223
-0.16849554 0.115019545 0.028116876 -0.13293968 0.21506123 0.020884555 -0.051833734 -0.025507808
-0.1712442 -0.14075835 -0.09491256 -0.12106929 -0.157483 -0.16135679 0.04204699 0.033256397
0.12225298 -0.20398471 0.0045022126 0.08615469 0.04028621 0.016511727 0.08697622 -0.13619632
0.0073443977 -0.006361217 0.07825757 0.156633 -0.1852588 0.16833897 0.18127383 0.18006662
-0.12308413 -0.31437337 -0.3603848 -0.08140051 -0.011987804 0.015376592 0.14603691 0.18525916
-0.021031072 -0.008296489 0.03692882 -0.1341442 0.10365542 0.020680774 0.005765277 0.054914687
-0.28426772 0.033933867 -0.064748764 -0.020622086 -0.07207493 -0.14851503 -0.10742077 0.08341948
-0.15210618 0.08262106 0.12603484 0.09341299 -0.08256837 -0.055957004 0.010575146 -0.17546983
-0.10869913 -0.025269616 -0.032083984 0.10300803 -0.044062153 -0.20110607 0.21999161 -0.013529523
0.15628393 -0.24306834 0.15462655 -0.07982405 0.083969615 -0.044850238 0.047976412 0.27850285
0.02339757 -0.24716653 0.24668549 0.010129054 -0.07976403 -0.27725697 -0.22333941 0.07286837
0.07670846 0.06737579 -0.11623797 -0.1350714 0.12195628 0.12214824 0.1648566 0.084233455
-0.07199931 0.07424843 -0.008027614 0.09416936 0.13132799 -0.045278277 -0.08708389 -0.13411506
-0.10043856 0.06327197 0.04012967 0.070689365 -0.41130602 -0.67481273 0.15404359 -0.30335754
-0.24284916 -0.24646361 -0.40036112 0.0137064615 -0.07645108 0.051677007 -0.31686455 -0.108045794
-0.32104233 -0.039780132 0.17132027 0.001361678 0.12479257 -0.00020604843 -0.11916953 0.16540024
0.07822347 0.040836237 -0.026998276 -0.15340392 0.18260759 -0.06263649 0.021497957 0.034327384
-0.059611496 0.06422232 -0.04971552 -0.005741176 -0.39485013 -0.13603245 -0.14296988 -0.26482543
-0.28770944 -0.16426738 -0.07435136 -0.089565195 -0.103559166 -0.10078169 -0.025897881 0.06567656
-0.12102647 -0.17432036 0.097860284 0.03340667 -0.011049916 -0.036109935 0.013661822 0.109581314
-0.33738962 -0.08845743 0.05202007 -0.085047804 0.016798608 -0.14734578 -0.22295842 -0.11501434
-0.048477475 0.022826089 -0.39955583 -0.47513503 0.16863964 0.12951407 0.11553897 -0.10319923
-0.36613846 -0.12219793 -0.20006004 0.18612131 -0.038904548 -0.067457125 -0.061817996 -0.01733492
-0.025248975 0.02266054 -0.061936233 -0.073618256 0.035708155 0.076959625 0.21482323 0.06215054
0.046952356 -0.07337918 -0.011990081 0.24462737 0.039108098 -0.23603353 -0.09721232 -0.06589215
-0.17078418 -0.12911934 -0.027228698 0.015235206 -0.16597053 -0.5282919 -0.444366 -0.07888881
0.14424443 0.099492274 0.10785501 -0.14671145 -0.20544478 -0.07172495 -0.1733523 -0.17792024

fc1.bias f4 [10]
00000000: a4dd c23d b090 9a3d d35d 943d e42b 0cbe
00000010: 4960 35bd 4c28 abbd c62d 5bbc 1622 583d
00000020: b3aa 05bd 12d1 aaba
0.09514931 0.07547128 0.07244458 -0.13688618 -0.044281278 -0.083572954 -0.013377612 0.052766882
-0.032633495 -0.0013032279
