models/sparse_mlp.pth (torch, 409595 bytes, 4 tensors)

fc1.weight f4 [128, 784]
000000 a4 a8 cb 38 a9 7a da 38 52 5c a0 b8 bf 31 ba b8
       9.711206e-05 0.00010417897 -7.6465905e-05 -8.878437e-05
000010 23 56 1d b9 36 79 bb 39 db 2d e0 38 61 17 13 38
       -0.00015004775 0.0003575773 0.000106896936 3.5069304e-05
000020 c4 4c 5d 37 10 f3 0f 39 c0 c3 2c 36 cc b5 f8 37
       1.31905e-05 0.0001372809 2.5743939e-06 2.964856e-05
000030 ef 1f d2 b8 26 61 f9 37 e7 c1 fd 38 14 61 be b8
       -0.000100195284 2.9728351e-05 0.00012100097 -9.077988e-05
000040 fc ad 18 38 27 ab 39 39 e5 fa 35 b9 ff 72 0f b9
       3.640166e-05 0.00017706734 -0.0001735497 -0.00013680382
000050 ae 83 67 38 37 12 e6 38 0e 85 c2 38 48 31 b7 39
       5.5197328e-05 0.000109706474 9.275424e-05 0.00034941197
000060 e2 f2 61 39 6c ff 17 b9 fb c2 0a b9 78 52 1a 38
       0.00021548153 -0.00014495634 -0.00013233341 3.6793266e-05
000070 70 13 38 37 3b 0a 4f b9 6c f7 d1 39 76 ce 93 38
       1.097178e-05 -0.0001974487 0.0004004793 7.0479626e-05
000080 b8 d9 db 36 6c f4 ea 37 b3 e7 41 39 a0 01 c1 37
       6.5520544e-06 2.8008792e-05 0.00018492229 2.300815e-05
000090 46 c4 1e 39 7d 36 03 b9 47 21 86 38 1d 86 20 38
       0.00015141172 -0.00012513432 6.395816e-05 3.8271875e-05
0000a0 0e 51 f5 b8 71 3d ac b8 80 49 53 b9 dd 6d 24 39
       -0.00011697608 -8.2130435e-05 -0.00020149909 0.00015681186
0000b0 9d 51 e7 38 c0 ba 71 b9 1c d7 77 38 23 6a ce 38
       0.0001103014 -0.00023053121 5.9089725e-05 9.842615e-05
0000c0 34 78 73 38 ef 74 e8 b8 3c 10 b8 b8 74 df 64 b8
       5.8047663e-05 -0.00011084403 -8.7768276e-05 -5.4567543e-05
0000d0 56 f2 73 39 c3 86 97 38 3f 78 d2 39 28 61 db 37
       0.00023264563 7.2253424e-05 0.00040143912 2.6152076e-05
0000e0 df bd fe b8 b3 f5 0e b9 7d dc d8 38 0b 2d c9 38
       -0.0001214703 -0.00013633705 0.00010340752 9.592817e-05
0000f0 bd 69 0d b9 2a 2c ba 39 20 91 6d b9 0e 6c 78 38
       -0.00013486198 0.0003550959 -0.00022656145 5.922844e-05
000100 9a 0b 85 38 e8 16 b5 b6 67 16 e3 38 fb 7b 97 39
       6.344095e-05 -5.396887e-06 0.00010828376 0.00028893337
000110 54 16 97 b8 23 ef 09 38 a6 ee e4 b8 e4 73 28 b8
       -7.2044e-05 3.288606e-05 -0.00010916339 -4.0162253e-05
000120 c2 36 00 39 b0 c5 97 37 2a cb d5 39 98 4e 9f b7
       0.0001222743 1.8092658e-05 0.00040777895 -1.8990875e-05
000130 f3 20 dc 38 69 f3 77 b9 8a e2 2c b9 00 69 c4 37
       0.00010496555 -0.00023646433 -0.0001648759 2.3413915e-05
000140 d4 ba e3 b8 c0 a9 b8 35 d2 d2 94 38 40 03 00 b9
       -0.00010859003 1.3758472e-06 7.096458e-05 -0.00012208242
000150 4b fc 7e b9 e2 c6 47 b9 8a 53 9b b8 b6 40 30 b9
       -0.00024317314 -0.00019052209 -7.406536e-05 -0.00016808775
000160 05 9d 47 b9 8e 67 d7 39 ec a8 37 b9 42 14 15 38
       -0.00019036613 0.0004108515 -0.00017515168 3.5543235e-05
000170 48 54 91 b8 70 93 af 38 b0 7d 42 39 94 34 6e b9
       -6.9298374e-05 8.372113e-05 0.00018548104 -0.00022717036
000180 c2 8a 8e 37 51 1f c4 b8 d0 ff 3a b9 f8 f2 8b b9
       1.6992333e-05 -9.3518414e-05 -0.0001783364 -0.00026693172
000190 de f1 87 38 94 05 2d b9 38 5a 1b 37 4a 0e 43 b8
       6.482353e-05 -0.00016500644 9.259726e-06 -4.650493e-05
0001a0 ce bf 9a 39 30 74 87 b6 c4 a0 36 b7 20 c5 d2 36
       0.00029516075 -4.0368395e-06 -1.08854765e-05 6.281436e-06
0001b0 64 4d 06 38 0f c9 2c b9 66 0e ea 37 ea 64 96 38
       3.2020165e-05 -0.00016478098 2.7901679e-05 7.171354e-05
0001c0 95 17 e7 38 82 1d c5 37 fd 1c bb b8 16 4c 67 b8
       0.00011019331 2.349797e-05 -8.922254e-05 -5.5145552e-05
0001d0 00 ad cc 37 c2 95 34 b9 42 bd 73 b9 56 d2 01 39
       2.4399254e-05 -0.00017221927 -0.0002324479 0.00012380755
0001e0 5f 50 06 b9 9c 37 0b b8 9e 62 aa b8 e4 33 3b b9
       -0.00012809176 -3.3191973e-05 -8.1246006e-05 -0.0001785304
0001f0 5c ce 8d b7 80 b3 8e 39 82 fd 41 b9 b6 72 c0 38
       -1.6904603e-05 0.00027218089 -0.00018500353 9.17664e-05
000200 a0 04 a6 36 42 47 e7 37 2c d2 1a 39 21 cf a5 39
       4.947724e-06 2.7570528e-05 0.0001476488 0.00031625576
000210 b2 69 86 b9 34 13 9d b8 6c 36 8c b9 48 8b 93 b7
       -0.0002563722 -7.48992e-05 -0.00026743428 -1.7588623e-05
000220 b0 0c 56 b9 8a a6 0b b9 e0 45 55 b8 96 2b d3 b8
       -0.00020413357 -0.00013318114 -5.0848234e-05 -0.000100693826
000230 72 42 e2 b8 a3 ae 8e 38 8c 12 70 b8 24 24 d2 39
       -0.00010788896 6.803616e-05 -5.7237732e-05 0.00040081248
000240 66 c8 02 37 dc b1 3c 38 fa f8 8c b9 d4 f1 45 39
       7.795263e-06 4.4988337e-05 -0.00026888383 0.00018877472
000250 ac 41 f1 37 e9 26 aa 38 1c c6 c9 37 29 09 2d b8
       2.876002e-05 8.113479e-05 2.4053319e-05 -4.1254945e-05
000260 fb 7f 20 b9 f0 f8 63 37 a8 df d1 b6 70 df fd b8
       -0.00015306466 1.3588215e-05 -6.2547224e-06 -0.000121055986
000270 20 48 1d b5 a6 a0 92 38 9b 7d 70 38 08 77 25 b9
       -5.8592013e-07 6.9917456e-05 5.733744e-05 -0.00015779969
000280 a2 d4 b3 39 8a a3 30 39 20 1b 27 39 0c ca b8 b9
       0.00034299964 0.00016845591 0.00015936466 -0.00035245751
000290 bb c8 0a 39 be b5 72 b8 b6 7c 3b b9 5e 51 69 b9
       0.00013235483 -5.7866557e-05 -0.00017880168 -0.00022250923
0002a0 9a 60 68 38 b2 19 31 b9 2d b9 21 b9 7e 86 18 39
       5.5403078e-05 -0.00016889608 -0.0001542314 0.00014545952
0002b0 7d e6 8f 39 47 0c 15 b9 54 89 41 b8 9e 4b d7 b9
       0.00027446813 -0.00014214321 -4.6142683e-05 -0.00041064335
0002c0 d2 cb 52 b9 9c 88 c0 b8 94 ab 3e 39 30 d7 af 39
       -0.0002010309 -9.180719e-05 0.0001818373 0.00033538928
0002d0 8a 37 72 b8 76 da 10 b9 71 d1 80 b8 f2 ba a5 38
       -5.774902e-05 -0.00013814293 -6.142527e-05 7.9026344e-05
0002e0 a1 17 d6 38 70 94 b2 38 60 c6 61 b6 b2 e1 03 39
       0.000102087164 8.51535e-05 -3.3643082e-06 0.00012577212
0002f0 ca 98 91 38 64 bb 0d b9 f8 5f c3 b8 80 bc 39 39
       6.942598e-05 -0.00013516616 -9.3162e-05 0.00017713197
000300 00 b9 87 35 48 08 49 b9 cd 7d 32 b9 ef c5 7b b8
       1.0112126e-06 -0.00019171939 -0.00017022267 -6.0027403e-05
000310 7e 3b 58 b8 10 d8 0c b9 9b bb 31 b9 1a 27 1e b9
       -5.155382e-05 -0.0001343193 -0.00016949924 -0.0001508262
000320 40 ff 7b b8 78 ce 0e b7 c1 01 ad 38 c8 51 27 b9
       -6.0080783e-05 -8.511932e-06 8.2496095e-05 -0.00015956827
000330 e2 a1 30 b8 20 0d 9d b6 38 ed 5a b7 62 88 37 b9
       -4.2112435e-05 -4.6804926e-06 -1.3049044e-05 -0.00017503047
000340 9a cf 99 39 92 a2 f1 39 b2 b1 17 38 24 68 ef 38
       0.0002933711 0.00046088226 3.6166697e-05 0.00011415806
000350 63 a6 4e 39 80 c3 bf b6 a0 39 b6 37 91 51 c8 b8
       0.00019707675 -5.7150028e-06 2.1722924e-05 -9.551936e-05
000360 4f 2a ab b9 c1 5e ea b8 53 96 aa b9 48 b0 33 b9
       -0.00032647184 -0.00011175639 -0.00032536927 -0.0001713644
000370 e2 60 47 b8 b4 85 f0 b8 a2 47 b8 b8 cc ca 39 b9
       -4.7535526e-05 -0.00011468996 -8.787146e-05 -0.00017718523
000380 a7 b7 49 b9 02 85 b9 38 d4 e2 96 38 98 02 0e 38
       -0.0001923727 8.846262e-05 7.1948074e-05 3.3857854e-05
000390 c0 dd bd 37 c0 0b 07 b7 91 e3 b3 b8 67 70 45 39
       2.2633816e-05 -8.049363e-06 -8.577773e-05 0.00018829257
0003a0 be fd 37 b9 25 b1 6e b9 fa 41 ae b9 90 ed 1a 38
       -0.00017546766 -0.0002276344 -0.00033237023 3.693771e-05
0003b0 f5 04 f4 b8 68 14 bf 38 84 97 49 38 26 54 3c 39
       -0.0001163575 9.111391e-05 4.8063244e-05 0.00017960425
0003c0 e8 b1 69 b8 46 c7 2c b8 27 a2 26 b9 70 e2 0f b8
       -5.5717217e-05 -4.1193583e-05 -0.000158914 -3.4304743e-05
0003d0 90 b8 18 38 d4 4e 8f b6 18 de 7c 39 e8 d0 51 38
       3.641151e-05 -4.270909e-06 0.00024115329 5.0024042e-05
0003e0 fa d5 3b b8 6a f2 86 b9 10 f0 1d 36 a5 cc c9 b8
       -4.4783555e-05 -0.00025739084 2.3534558e-06 -9.622545e-05
0003f0 a4 87 c4 b6 90 45 83 b9 24 1d 87 b8 04 19 96 b8
       -5.857046e-06 -0.00025038095 -6.4427295e-05 -7.157217e-05

fc1.bias f4 [128]
000000 02 7a 25 bd 8e 68 8d bd bc fa f5 bc 1c 59 00 bd
       -0.04039956 -0.06904708 -0.030026786 -0.03133498
000010 87 ca 8f bd c6 ea ae be 88 15 42 bd b6 fa b2 bc
       -0.07021051 -0.34163493 -0.047383815 -0.021848064
000020 11 3b 40 3d 1c a7 de be 70 14 93 bd 11 60 48 3e
       0.04693133 -0.4348687 -0.071816325 0.19567896
000030 06 c8 a0 be 61 55 48 3f 19 80 89 be 13 43 8d bc
       -0.31402606 0.7825528 -0.26855543 -0.017243898
000040 8c d6 a5 bd ef f3 b2 bc 1d 3e 12 3f e2 b4 46 3e
       -0.08097562 -0.021844832 0.5712603 0.19404939
000050 60 09 a0 bc 48 58 27 3e 03 47 3a be 5e e2 c1 bc
       -0.01953572 0.1634227 -0.18191151 -0.02366751
000060 be 7e ab be 40 c4 9c bd 65 68 14 be a5 cc 65 be
       -0.33495134 -0.07654619 -0.14492948 -0.22441347
000070 0e 5e 58 3e 14 ab 3d bd ff 53 a2 bc 47 dc c4 3c
       0.21129629 -0.04630573 -0.019815443 0.024030818
000080 a3 46 5d bd e4 a8 80 be 71 ed d9 3e 7f 1b 9c bc
       -0.054022443 -0.25128853 0.42563966 -0.01905608
000090 46 0a cf 3b 7a 49 b1 3d 6d ac db be eb 59 17 be
       0.0063183634 0.08656593 -0.42904988 -0.14780395
0000a0 6b 93 5b bd 1e 94 67 3d 81 14 b4 bc ca 92 91 bd
       -0.053607386 0.05653774 -0.021982433 -0.07108076
0000b0 e0 c8 49 bd 70 1d 09 be 13 a3 3b bd 83 82 47 bd
       -0.049263835 -0.13390136 -0.045809817 -0.04870845
0000c0 88 d0 7b be ab c6 c2 bd 8a ad 87 3e 2b 99 e9 bc
       -0.24591267 -0.09510549 0.26499587 -0.028515419
0000d0 70 74 1a bd da 24 b5 bc 09 0d d8 3e a4 e5 c7 bc
       -0.0377087 -0.022112299 0.42197445 -0.024401493
0000e0 f3 93 50 bd a8 a8 56 bd 1f a9 cf bc 0d 11 50 3d
       -0.050922345 -0.052406937 -0.025349198 0.05079751
0000f0 ce 03 81 bd b6 46 fd bc c1 ab 91 3d 62 64 e4 bc
       -0.06299554 -0.030917507 0.071128376 -0.027879898
000100 e3 34 99 bd 86 6f ef bc 3a 07 ba 3d 03 59 07 bd
       -0.074807905 -0.029227983 0.090834096 -0.033043873
000110 99 c2 cf bc ca 0b 39 be 08 db c1 bc c0 d4 d1 bd
       -0.025361346 -0.18070903 -0.023664013 -0.10245657
000120 27 0c f2 bd 66 9e 8e bc 2b 94 3f 3e a3 c7 fe bc
       -0.11818724 -0.017409515 0.18708865 -0.031101054
000130 58 a6 96 3d 64 7e 5e bd 03 8e ce bc 10 7f 07 bd
       0.07355946 -0.054319754 -0.0252142 -0.03308016
000140 9e 26 ea bc 4b 04 3d bd 75 c9 50 bd 4d 57 10 bd
       -0.028582867 -0.046146672 -0.050973374 -0.035239507
000150 e8 5e 9b be 4c e1 9b 3e 89 b3 1a be 2f c3 4f bd
       -0.30345845 0.30445325 -0.1510755 -0.05072325
000160 1e df a7 3e c7 2b 58 bd 3d ba c8 bd 3f d6 01 bd
       0.32787412 -0.052776124 -0.09801147 -0.03169846
000170 e1 55 23 bd 64 02 79 be 0f 25 b9 bc 61 1d ae bc
       -0.039876822 -0.24317318 -0.022600679 -0.021254243
000180 1b 79 c5 3d 49 aa 1d bd a4 ae 2a 3d 93 d7 e9 be
       0.0964224 -0.038492475 0.041670457 -0.45672283
000190 44 13 8e be 34 76 60 3e 66 56 a1 bd cb af b0 bc
       -0.27749074 0.21920091 -0.07877807 -0.0215682
0001a0 f0 60 c8 bc e4 cc 4c 3d 55 ba 31 be e5 40 de bc
       -0.024460286 0.050000086 -0.17356236 -0.027130553
0001b0 34 93 39 3e 2c c8 fa bd f7 e9 74 be e1 e3 df bc
       0.1812256 -0.12245211 -0.23917376 -0.02733034
0001c0 77 9a 69 bd 26 b0 8f bd 82 d7 a7 bc 9c fc 07 bd
       -0.057032075 -0.070160195 -0.020488504 -0.03319989
0001d0 39 72 65 bd 8b 39 e8 bc cc 5d 20 bd 91 da 87 3e
       -0.056017134 -0.028347751 -0.03915195 0.2653394
0001e0 66 51 9f bd 10 00 d3 3e a5 60 19 bd 95 94 93 bd
       -0.077791974 0.41210985 -0.037445683 -0.07206074
0001f0 4a 7b a6 be 40 25 bd bc d4 8d 39 bd 1a 85 b1 bd
       -0.32515937 -0.023089051 -0.045301273 -0.08667965

fc2.weight f4 [10, 128]
000000 27 75 82 3c 2b a3 47 bd d1 a1 39 3d 55 79 70 bd
       0.015925003 -0.048739593 0.045320336 -0.05870946
000010 9c b4 ac bd 18 8f 3b be 6e 28 4b bd d9 7b ff 3d
       -0.08432886 -0.18316305 -0.049599104 0.12474794
000020 23 6b 84 3e 09 2c 2d bf 2d de af 3e e4 27 a0 bd
       0.2586299 -0.6764532 0.34349194 -0.078201085
000030 69 2c 0f be c2 6b 57 3e 24 54 3f bf eb f1 2e 3d
       -0.13981785 0.210372 -0.74737763 0.04271118
000040 32 c5 05 3e 85 df 17 be 14 54 38 bf 79 64 8b be
       0.13063505 -0.1483136 -0.72003293 -0.27225092
000050 ce 31 5a bd 32 47 09 be 6d 14 c4 3e 44 24 f4 bd
       -0.053270154 -0.13406065 0.38296834 -0.119209796
000060 37 3f 58 3d 13 a1 b0 bd fa 06 29 bd 4c 56 87 bf
       0.05279466 -0.086244725 -0.04126642 -1.0573211
000070 14 95 d5 3e 4e bf 15 3d e6 28 84 3d a4 c8 87 3f
       0.417153 0.036559395 0.06453113 1.0608106
000080 4d b8 04 3e e3 3d b6 bf 42 d3 ab bd ff 0a 83 be
       0.1296093 -1.4237636 -0.083899036 -0.25594327
000090 02 70 92 3e 10 71 43 3e 8b 6e 18 3d c5 13 dc be
       0.2860108 0.19086099 0.037214797 -0.42983833
0000a0 1a b7 3b 3d 92 4f 6d 3e e9 25 f2 3d dd f9 4a bd
       0.045828916 0.23174885 0.11823637 -0.049554694
0000b0 33 fd f3 3d 2d f3 87 be 9a b2 86 bd 78 d5 e4 39
       0.11913528 -0.26552716 -0.06577034 0.00043646595
0000c0 a3 0d 35 bf e9 dd 9e 3d 61 3e 5e 3e 18 73 51 be
       -0.70723933 0.0775717 0.21703483 -0.20454061
0000d0 6e e2 79 3d f3 3f b5 3d 14 cf f9 b7 9b 5b ee bd
       0.061006956 0.08850088 -2.9779541e-05 -0.11638566
0000e0 ca 54 09 3d 91 49 30 3e 14 7e 82 3d cb a1 2f 3c
       0.033528127 0.17215563 0.06371704 0.010719727
0000f0 63 0b b2 bd 08 ea cd 3d d0 e5 9a 3c 5a de a7 bd
       -0.08693578 0.100544035 0.018908411 -0.08196707
000100 c6 85 68 3b df 0b 6a 3b 00 27 37 3f 92 bf 04 3e
       0.0035480126 0.0035712642 0.71543884 0.12963703
000110 ca 86 04 bc ab d5 ff bd 16 29 47 3a f3 5d 17 bf
       -0.008088777 -0.12491926 0.000759737 -0.5912773
000120 7a 2a 30 3d 8a c6 f8 bd 94 00 25 bf ba 61 3f be
       0.04300926 -0.12147243 -0.6445401 -0.18689623
000130 5f 74 2d bf bf 32 cc 3d e6 7c 0c bd 49 38 48 3c
       -0.67755693 0.099706165 -0.0342988 0.012220451
000140 15 59 8e 3d c6 a8 46 3d cd 50 ed bc bc f5 4e 3d
       0.06950585 0.0485008 -0.028969193 0.05052732
000150 21 a1 f3 be 28 e6 2c 3f 85 07 64 3d d6 70 8b be
       -0.4758387 0.6753869 0.055671234 -0.27234524
000160 55 64 91 3e a9 80 61 3d 9d 7e 99 3e ba c8 d8 bd
       0.2839686 0.05505434 0.2997941 -0.105851606
000170 e8 6c 06 3e 94 96 b8 bf f8 d0 d8 bd 78 5a 05 3e
       0.13127482 -1.4420953 -0.105867326 0.13022792
000180 d6 a9 20 bd 5c ad a9 3d 45 ca 06 bf 51 58 fb be
       -0.03922447 0.08285019 -0.5265239 -0.49090818
000190 6f 79 c3 3c b1 ec 83 be da bf 58 be 45 0f 89 3d
       0.023861615 -0.2576652 -0.21166936 0.066923656
0001a0 9b 73 7b 3c f2 d1 15 bd 0b 98 53 3e f4 71 17 bd
       0.015347387 -0.036577173 0.20663469 -0.03697391
0001b0 6f c7 15 3f a1 40 3c bf a1 d4 69 bf d8 1c 67 3d
       0.58507437 -0.73536116 -0.9134007 0.056423992
0001c0 1c db 87 3d 04 2e 8f bd 65 8f 47 3e 29 63 d3 3d
       0.06633589 -0.06991199 0.19488294 0.10321648
0001d0 d6 b1 15 3e f0 63 d3 bd 4b be 8a be 6e 04 61 be
       0.1461862 -0.10321796 -0.27098307 -0.21974346
0001e0 ef 60 23 be 16 f1 25 bf c5 de 02 3e 88 a0 c7 bd
       -0.15954946 -0.6482099 0.12780292 -0.09747416
0001f0 de 59 de bf fa dc 9a 3d f8 d9 95 bd 84 63 61 bd
       -1.7371175 0.07561679 -0.07316965 -0.055026546
000200 4d bc 0d be d2 bd a4 bc f7 62 35 be 68 f6 b6 bc
       -0.13841362 -0.020110045 -0.17713533 -0.022334293
000210 87 1a c0 3c ac 16 98 3d f2 ff cc bd 35 a8 f8 bd
       0.02345015 0.07426199 -0.10009755 -0.12141458
000220 13 66 42 be a0 b5 2d bf 23 c7 b1 bd 3c 5b 08 bf
       -0.1898425 -0.6785526 -0.086805604 -0.5326421
000230 90 ea d4 3e 48 e5 a0 bd 16 3c a6 3c 4f 08 d7 3c
       0.41585207 -0.07856232 0.020292323 0.026249079
000240 48 c1 19 bd c2 5f a0 3d 7d 71 63 3e b7 0b 70 3f
       -0.037537843 0.07830764 0.22211261 0.93767875
000250 76 82 67 bd 22 4f 82 be 7e 33 2c bd de 24 8e 3d
       -0.0565209 -0.25451 -0.042041294 0.069406256
000260 70 92 94 3e e9 38 d0 3d b4 f2 13 3f d5 c9 07 3f
       0.29017973 0.10167105 0.5779221 0.53042346
000270 7b 4f 81 bf 76 80 a4 bd 27 b3 0b be 84 0e 09 3f
       -1.010238 -0.080323145 -0.1364256 0.53537774
000280 4c e8 46 3d aa 4f a7 bf 0d 59 d4 bf d3 47 84 ba
       0.04856138 -1.3071187 -1.6589676 -0.0010092206
000290 75 9e 8f be 3d e8 68 3e 49 3d c7 3d ff 2b 21 3e
       -0.2805058 0.22744842 0.09728486 0.1573944
0002a0 ee c6 00 be 9d f9 15 be ac 59 0f be 0b 85 ce bd
       -0.12575886 -0.14646001 -0.13999051 -0.1008397
0002b0 bc 61 a7 bd 37 09 12 3e d1 d9 18 bd 43 c5 3d 3c
       -0.08172938 0.14261328 -0.0373171 0.011582675
0002c0 d2 31 86 bd 4e d3 86 3d ac 73 e7 be 36 6f 55 3d
       -0.06552471 0.06583272 -0.45205438 0.052108012
0002d0 96 e4 1c be cf 82 f7 bb c6 7f c0 bf 09 71 bc 3d
       -0.15321574 -0.0075534354 -1.5038993 0.09201247
0002e0 f0 a7 f7 3d 4f d2 c9 be 38 79 86 bb a4 bb 05 3b
       0.120925784 -0.39418265 -0.004103806 0.0020406032
0002f0 be f9 ea bd b0 3e 77 bd 1d 4b 2d 3f 05 a9 9c 3d
       -0.11473416 -0.060362518 0.6769274 0.076494254
000300 25 ae 02 bf df 42 2e 3d 57 76 33 be bd c3 aa bd
       -0.51046973 0.042544242 -0.17525612 -0.08338115
000310 40 53 2b be 23 a2 73 bf 8e 88 31 be dd e8 5d bf
       -0.16730976 -0.95169276 -0.17337248 -0.86683446
000320 c7 8e 69 be c6 1e 5b 3d 2c 0f b3 be f2 50 a5 bc
       -0.22808371 0.053496145 -0.34972513 -0.0201802
000330 51 ec fc be d6 ba a7 bc cd 07 e5 3d e3 07 17 be
       -0.49399045 -0.020474833 0.111831285 -0.14749102
000340 d6 6d 0c be 01 7a 3e bd eb d1 6c 3d 1c 95 80 bd
       -0.13713774 -0.04650307 0.05781738 -0.0627844
000350 5f ef e6 3e 8f ad 9e bf 15 b0 be 3d 30 45 55 bd
       0.451045 -1.2396716 0.09310929 -0.052067935
000360 72 92 0d 3f 13 9b c1 bd 16 d3 8a be 1d 82 2c be
       0.5530158 -0.09453406 -0.2711417 -0.1684651
000370 b4 73 8e be 63 50 31 3e 22 6f 9d bd cd 7f f6 bd
       -0.2782265 0.17315821 -0.076872125 -0.12036095
000380 6c 56 01 bf a2 6f 1e 3d d8 43 05 bb 0e 0a 53 3f
       -0.50522494 0.03868068 -0.0020334627 0.8243722
000390 bd 05 b2 3d 0c 9b 18 bf 97 39 ff 3d a3 1f 3e be
       0.08692501 -0.5961158 0.12462156 -0.18566756
0003a0 f4 0c b8 3c 72 ae 92 bc 68 75 cc be 03 d6 61 bd
       0.022467114 -0.017905448 -0.39933324 -0.055135738
0003b0 71 af 38 bf 96 03 c2 3e f3 42 51 3f da de 13 3d
       -0.721427 0.3789336 0.8174278 0.0361012
0003c0 e0 2d 4a 3c 71 7b 80 3d 93 23 c4 bd ad e5 a3 3d
       0.012340039 0.062735446 -0.09577098 0.080027916
0003d0 9f 86 8c bd aa c9 64 b9 5b 09 93 3e b5 a4 73 3e
       -0.068616144 -0.000218189 0.28718075 0.237933
0003e0 54 93 b0 3d cf 1b 12 3f da 76 b9 be 94 9b fc 3c
       0.086218506 0.5707368 -0.3622349 0.030835904
0003f0 75 e0 12 be 19 cd 29 be 68 63 b7 3c 99 c3 0e be
       -0.14343436 -0.16582145 0.022386268 -0.13941802

fc2.bias f4 [10]
000000 d8 eb 98 39 5b c7 18 bf b8 ca c7 bd 11 76 d3 be
       0.00029167417 -0.5967919 -0.097554624 -0.41301015
000010 16 29 1f 3d 47 06 78 be 72 34 41 be 81 12 64 be
       0.038857542 -0.24221145 -0.18867663 -0.22272684
000020 09 69 77 3f c8 4c 04 3e
       0.96644646 0.12919915
