models/sparse_mlp.pth (torch, 409192 bytes, 4 tensors)

fc1.weight f4 [128, 784]
0	0xba2d54d2	-0.00066120655
1	0xba2edfb2	-0.00066709064
2	0xba2d2521	-0.0006604959
3	0xba201db2	-0.00061079406
4	0xba22a0b3	-0.00062037556
5	0xba165c74	-0.00057358225
6	0xba1aa535	-0.00058992516
7	0xba2bdaeb	-0.00065557536
8	0xba24dc81	-0.0006288961
9	0xba224db4	-0.0006191388
10	0xba3a451e	-0.0007105636
11	0xba1cdae7	-0.0005983547
12	0xba22dc64	-0.00062126503
13	0xba2dc3dd	-0.0006628612
14	0xba15f00d	-0.0005719669
15	0xba29a4ed	-0.0006471414
16	0xba1b36ea	-0.00059209636
17	0xba1af648	-0.00059113326
18	0xba1c254e	-0.00059564866
19	0xba33d7a6	-0.0006860442
20	0xba28edab	-0.00064441067
21	0xba3a59c0	-0.00071087107
22	0xba2c77e4	-0.00065791444
23	0xba29087a	-0.00064481015
24	0xba1c5d0b	-0.0005964792
25	0xba15f7e6	-0.00057208387
26	0xba400010	-0.0007324228
27	0xba339d84	-0.000685178
28	0xba2d71cf	-0.0006616385
29	0xba297281	-0.0006463901
30	0xba2d73b5	-0.0006616668
31	0xba4a4999	-0.00077166554
32	0xba1ab249	-0.00059012003
33	0xba164606	-0.000573248
34	0xba2935d7	-0.0006454861
35	0xba212a04	-0.00061479234
36	0xba400cc2	-0.000732612
37	0xba1f4bce	-0.00060766644
38	0xba18b84f	-0.0005825804
39	0xba2ac4b5	-0.0006514297
40	0xba295f7c	-0.00064610667
41	0xba2d53a5	-0.000661189
42	0xba2938dd	-0.00064553117
43	0xba34a0db	-0.00068904244
44	0xba38644a	-0.0007033987
45	0xba3e428c	-0.0007257841
46	0xba290103	-0.0006446989
47	0xba3c3090	-0.0007178867
48	0xba34acdc	-0.0006892213
49	0xba15863e	-0.00057039026
50	0xba1bd8b5	-0.00059450726
51	0xba4016d4	-0.00073276204
52	0xba29506b	-0.00064588216
53	0xba2eaeff	-0.00066636497
54	0xba266b50	-0.0006348388
55	0xba26c05d	-0.0006361062
56	0xba330faa	-0.0006830642
57	0xba0ec57c	-0.00054462976
58	0xba1d415b	-0.00059988134
59	0xba2b2e97	-0.0006530075
60	0xba2a2705	-0.00064908
61	0xba36e961	-0.0006977525
62	0xba206ac9	-0.0006119428
63	0xba16a9e9	-0.00057473645
64	0xba2b1442	-0.0006526151
65	0xba31b566	-0.00067790446
66	0xba3699cf	-0.0006965668
67	0xba1159ff	-0.00055447215
68	0xba338ace	-0.00068489916
69	0xba2456f9	-0.00062690635
70	0xba47430d	-0.0007601239
71	0xba34de93	-0.0006899621
72	0xba43d7a0	-0.00074707903
73	0xba377072	-0.00069976517
74	0xba3aaad5	-0.0007120793
75	0xba279a97	-0.000639358
76	0xba1bcf40	-0.00059436634
77	0xba30b7c6	-0.00067412516
78	0xba34dc49	-0.000689928
79	0xba424c77	-0.0007411907
80	0xba29df89	-0.0006480148
81	0xba2e8c5f	-0.000665849
82	0xba2baa7b	-0.0006548536
83	0xba27d5f7	-0.00064024277
84	0xba1d1578	-0.0005992274
85	0xba1bf8c1	-0.0005949848
86	0xba2a4a94	-0.00064960984
87	0xba2b37bf	-0.0006531439
88	0xba37b4e0	-0.00070078485
89	0xb98ecf96	-0.00027239014
90	0xba268ab0	-0.00063530635
91	0xba29e176	-0.00064804347
92	0x39b1f522	0.0003394271
93	0xb97ec258	-0.00024295726
94	0xb9ade7b4	-0.00033169764
95	0xba0bf6fb	-0.0005339232
96	0xba3bf55d	-0.0007170046
97	0x3a839716	0.0010039534
98	0x3aaed338	0.0013338095
99	0x3af76d93	0.001887726
100	0x3b09f0f4	0.002104816
101	0x3aacbec6	0.0013179414
102	0x38bf1990	9.112351e-05
103	0xba8b8927	-0.0010645733
104	0xb9f56f92	-0.00046813168
105	0xb9b80eb2	-0.00035106164
106	0xb9a2b3e4	-0.00031033077
107	0xb9f62756	-0.00046950084
108	0xb9f39966	-0.00046462863
109	0xba2e0ad6	-0.0006639188
110	0xba291e98	-0.0006451397
111	0xba35c3bb	-0.0006933768
112	0xba12a493	-0.00055939815
113	0xba2cd65d	-0.0006593222
114	0xba3447db	-0.00068771624
115	0xba0d3989	-0.00053872966
116	0xba2ce35b	-0.0006595158
117	0xba556576	-0.0008140424
118	0xbaf3f2a6	-0.0018611744
119	0xbaaef79c	-0.001334894
120	0xbabc8366	-0.0014382422
121	0xbb0b1f5a	-0.0021228404
122	0xbab9bda9	-0.0014170903
123	0xbadc3aaa	-0.0016802151
124	0xbac7ba2b	-0.0015237977
125	0xbb8a48de	-0.004220112
126	0xbad17669	-0.0015980724
127	0x3a968747	0.0011484408
128	0x3bfd4a1f	0.007729783
129	0x3bdce5e1	0.006741271
130	0x3aed786b	0.0018117552
131	0x39c85a86	0.00038214418
132	0xbb8927c5	-0.004185649
133	0xbb8928a4	-0.004185753
134	0xba786be2	-0.0009476525
135	0x3ab355a0	0.0013682134
136	0xba8dc80f	-0.0010817068
137	0xba35632b	-0.0006919379
138	0xba3af79f	-0.00071322353
139	0xba218cf5	-0.0006162667
140	0xba1d2b0a	-0.0005995488
141	0xba24c007	-0.0006284718
142	0xba1d3643	-0.00059971603
143	0xba629d2f	-0.0008644638
144	0xba50f399	-0.0007970869
145	0xbac8b5de	-0.001531299
146	0xbace50dd	-0.0015740652
147	0xba6e9038	-0.000910047
148	0xbaeb79ea	-0.001796541
149	0xbb23ea82	-0.0025011604
150	0xbb24cfd1	-0.0025148282
151	0xbb803fcf	-0.0039138566
152	0xbb29f56f	-0.0025933643
153	0x3b9ad036	0.0047245277
154	0x3b9e5637	0.004832055
155	0x3b33a0fd	0.002740919
156	0x3c01311f	0.007885247
157	0x3c3e72af	0.011624022
158	0x3b121371	0.002228942
159	0x3a854b44	0.0010169526
160	0x39df836e	0.00042631797
161	0x38a3bcd8	7.8076206e-05
162	0x3b65ea34	0.0035082223
163	0x3be6576e	0.0070294654
164	0xb9d6ab96	-0.00040945102
165	0xb992a5d4	-0.00027970842
166	0xba415c3b	-0.0007376109
167	0xba0494ce	-0.0005057574
168	0xba11c1af	-0.0005560172
169	0xba222c45	-0.0006186406
170	0xba2c5815	-0.00065744045
171	0xba36a22e	-0.00069669157
172	0xba485d6f	-0.0007643317
173	0xba6fdefa	-0.00091503526
174	0xba7bd9e2	-0.0009607357
175	0x3a6939de	0.00088968675
176	0x3a3fa488	0.0007310589
177	0xbbccc9a0	-0.0062496215
178	0xbbe1a770	-0.006886415
179	0xb99c76d2	-0.00029843167
180	0x3b80dc30	0.0039324984
181	0x3c2bab6e	0.010477884
182	0x3b606c94	0.0034244405
183	0x3aa834cb	0.0012833116
184	0x3b800462	0.0039067725
185	0x3be09d9f	0.0068547274
186	0x3b904aee	0.0044034636
187	0x3b8fcb66	0.0043882607
188	0x3a9a07ed	0.001175163
189	0x3b350afc	0.0027624955
190	0x3ba1dac8	0.004939411
191	0x3a993358	0.0011688275
192	0xb9497984	-0.00019214122
193	0xb9f6e0a8	-0.00047088158
194	0xba44b879	-0.0007504295
195	0xba2ea5a4	-0.00066622556
196	0xba043ae5	-0.00050441764
197	0xba375602	-0.0006993712
198	0xba27de74	-0.00064036925
199	0xba225e37	-0.00061938487
200	0xba102215	-0.00054982427
201	0xb9b5ef9e	-0.0003470154
202	0x396702c8	0.00022030913
203	0x3af0915a	0.0018353865
204	0xbbc8a1de	-0.0061228117
205	0xbbc7916c	-0.0060903337
206	0x39ee3d21	0.00045440442
207	0x3cbaecc8	0.022817984
208	0x3c94a077	0.018142922
209	0x3d03d20a	0.03218273
210	0x3d9aedd4	0.07564893
211	0x3a0af291	0.00053004274
212	0xbbabf060	-0.005247161
213	0x3a680b60	0.00088517927
214	0x3c5ba3bd	0.0134057375
215	0x3c2d09ff	0.010561465
216	0x3a0f0d7f	0.0005457028
217	0x39a946a5	0.00032286826
218	0x3b2d4d49	0.002644377
219	0x3afe112c	0.001938378
220	0x398dc279	0.0002703851
221	0xbac41430	-0.001495963
222	0xba72a57e	-0.00092562276
223	0xba0ecf6c	-0.00054477784
224	0xba2d69df	-0.00066152023
225	0xba22865e	-0.0006199832
226	0xba4e0a3e	-0.00078598026
227	0xb9f94080	-0.00047541037
228	0xb9e05654	-0.0004278893
229	0xb950d5f8	-0.00019916135
230	0x3aa28f73	0.001240237
231	0xba92dc82	-0.0011204632
232	0xbc0d26dd	-0.008615223
233	0xbc0a93d9	-0.008458101
234	0x3b39fb18	0.0028378423
235	0x3c533505	0.012891059
236	0x3d15dbca	0.03658656
237	0x3c936b29	0.017995434
238	0x3ca45ce3	0.020063823
239	0x3b5810be	0.0032968963
240	0xbbdcb73e	-0.0067357114
241	0xbb4ee748	-0.003157096
242	0xb999bdaf	-0.0002932376
243	0xbac4352c	-0.001496946
244	0xba83c32b	-0.0010052671
245	0xbae6134c	-0.0017553358
246	0xb89246b3	-6.974991e-05
247	0x3b8f5b17	0.0043748724
248	0xb9bea71d	-0.00036364133
249	0xbaab8ac5	-0.0013087621
250	0xb9e17660	-0.0004300354
251	0xba343322	-0.00068740745
252	0xba2bec79	-0.00065583695
253	0xba211991	-0.0006145472
254	0xba262140	-0.0006337352
255	0xb9f17892	-0.00046056934

fc1.bias f4 [128]
0	0x3df17cb7	0.117913656
1	0xbc1c52ac	-0.009541195
2	0xbcb260ed	-0.021774733
3	0x3e45d2ca	0.19318691
4	0x3d8d9712	0.0691358
5	0x3e4a0ab8	0.19730651
6	0xbcab2ec0	-0.020896316
7	0xbc9cbda6	-0.0191334
8	0x3da2aeef	0.07943522
9	0xbc94f773	-0.0181844
10	0x3e3f308e	0.18670866
11	0x3e441040	0.19146824
12	0xbc7ece7f	-0.015552162
13	0xbcf0d333	-0.029397583
14	0xbd7b9959	-0.06142554
15	0x3e8d6ef6	0.2762372
16	0xbcc9ce2e	-0.024634447
17	0xbcbce455	-0.023058096
18	0xbd293ffd	-0.04132079
19	0xbcbb6310	-0.022874385
20	0x3e5badd5	0.2145303
21	0xbcb0af88	-0.021568075
22	0x3b53dc64	0.0032327408
23	0x3e812d04	0.25229657
24	0xbd3e5b13	-0.046473574
25	0xbc5958ff	-0.013265847
26	0x3e737810	0.23776269
27	0xbd81f2f1	-0.063451655
28	0xbdd1ce6f	-0.10244452
29	0x3da18845	0.078873195
30	0xbd55b068	-0.052170187
31	0xbd3f0e79	-0.04664466
32	0xbd2d0488	-0.04224065
33	0xbc917077	-0.017753823
34	0xbca2799a	-0.019833375
35	0xbc569652	-0.013097363
36	0x3df38a03	0.11891558
37	0x3e67220d	0.22571583
38	0xbc83a148	-0.016068116
39	0xbde4dadd	-0.11174557
40	0xbd82ad2d	-0.06380687
41	0xbd358c95	-0.044323523
42	0xbc8b8725	-0.017032215
43	0x3b68bf23	0.0035514317
44	0x3d20ba90	0.03924042
45	0x3dbfbacf	0.09361803
46	0xbca1f10b	-0.019768259
47	0xbc979526	-0.018503737
48	0xbc748de7	-0.01492641
49	0xbcb6ec64	-0.022329517
50	0x3e050766	0.12991104
51	0xbc668ea9	-0.014072099
52	0xbc5dc8b3	-0.01353662
53	0xbdb863ce	-0.09003411
54	0x3df20a10	0.118183255
55	0xbd48ef75	-0.04905649
56	0xbc9f2568	-0.019427016
57	0xbd04d80c	-0.0324326
58	0xbca8baa5	-0.020596812
59	0xbd4b8774	-0.049689725
60	0x3e83eebe	0.25768083
61	0xbbeb5f3c	-0.0071829837
62	0xbc7530c2	-0.014965238
63	0xbc5678c1	-0.013090313
64	0xbda3f503	-0.08005717
65	0x3d4dbfa5	0.050231595
66	0x3c993271	0.01870081
67	0x3e263448	0.16230881
68	0xbce16517	-0.027514024
69	0x3cd74a1f	0.02628046
70	0xbd482676	-0.048864804
71	0xbdb230e6	-0.08700733
72	0xbcbc45f2	-0.022982571
73	0xbc3f57ef	-0.01167868
74	0x3d865481	0.065590866
75	0x3e044dd9	0.12920322
76	0x3e0da38b	0.13831918
77	0xbd7f75a9	-0.06236807
78	0xbc9441ea	-0.018097837
79	0xbc843f9e	-0.016143616
80	0x3e096c68	0.1342026
81	0x3e1b7bac	0.15183896
82	0xbc037a6b	-0.008024792
83	0x3e3c0323	0.18360572
84	0x3e52f45a	0.20601025
85	0x3b885117	0.0041600573
86	0xbc48f3ef	-0.01226519
87	0xbd36ef9b	-0.0446621
88	0xbc7aa479	-0.015298002
89	0xbc897666	-0.01678009
90	0xbbd4b56b	-0.0064913533
91	0xbc89792f	-0.016781418
92	0xbc91d2a7	-0.017800642
93	0x3d9b09cc	0.07570228
94	0xbc9a5d07	-0.018843187
95	0xbd339c54	-0.043850258
96	0xbd002d85	-0.03129341
97	0xbe340df5	-0.17583449
98	0x3dfb5930	0.122728705
99	0xbde4c698	-0.11170691
100	0x3c62c031	0.013839767
101	0xbc2aeeda	-0.010432923
102	0xbd3ad011	-0.045608584
103	0xbc9c9d76	-0.019118052
104	0x3d29d361	0.041461352
105	0x3e00aa39	0.12564935
106	0x3df9f237	0.12204402
107	0xbd289ba7	-0.041164067
108	0x3e116b68	0.14201128
109	0x3e8657b7	0.26238796
110	0x3e9f5800	0.31121826
111	0x3e946adb	0.28987774
112	0xbddd005d	-0.10791085
113	0xbe217eb0	-0.15770984
114	0x3e7dbf0f	0.24779914
115	0x3e18182b	0.1485297
116	0x3e200f9f	0.15630959
117	0xbd869334	-0.065710455
118	0x3dba8c1b	0.09108754
119	0x3d8d94bc	0.069131345
120	0x3e178009	0.14794935
121	0x3d9a50c5	0.07534937
122	0xbdf0b0bf	-0.11752462
123	0x3caf9e99	0.02143793
124	0xbcbc7396	-0.023004334
125	0x3dec34c6	0.11533503
126	0xbccd749e	-0.025080021
127	0x3e15793f	0.14597033

fc2.weight f4 [10, 128]
0	0x3f0b613c	0.5444524
1	0xbe0b996f	-0.13632749
2	0x3df1f80d	0.1181489
3	0xbbe07e0e	-0.0068509644
4	0xbd99a046	-0.07501273
5	0xbe692c89	-0.22770895
6	0xbdf35438	-0.11881298
7	0xbe4caeae	-0.1998851
8	0xbe86206f	-0.2619662
9	0x3c9cc5df	0.019137321
10	0xbd70a0cf	-0.05874711
11	0x3e3d941d	0.18513532
12	0xbdf15a14	-0.11784759
13	0xbd648a44	-0.055795923
14	0xbe1078f3	-0.14108638
15	0x3e198592	0.1499236
16	0xbe18da97	-0.14927135
17	0x3dbc5f67	0.09197884
18	0xbb0cbbe6	-0.00214743
19	0x3d2376d9	0.039908264
20	0xbe522731	-0.20522763
21	0xbe06fc86	-0.13182268
22	0xbe91b043	-0.2845479
23	0x3db302c5	0.087407626
24	0xbe052f38	-0.13006294
25	0xbdf9277c	-0.12165734
26	0x3e89dc39	0.2692583
27	0x3ddf5966	0.10905723
28	0x3e9060f8	0.2819898
29	0xbe9e8028	-0.3095715
30	0xbdec3a89	-0.11534602
31	0x3e4adab1	0.19809987
32	0x3e1aee4c	0.15129966
33	0x3d260bf6	0.04053875
34	0xbdca98b3	-0.09892406
35	0xbdc2d18f	-0.095126264
36	0xbd1a0ce9	-0.03760997
37	0x3eb7435d	0.35793582
38	0x3cfaad14	0.030600108
39	0xbf382ff2	-0.7194816
40	0xbe4ba860	-0.19888449
41	0x3cf78646	0.030215394
42	0xbd6b198e	-0.057397418
43	0x3dfcea16	0.12349336
44	0x3e8e8d61	0.2784224
45	0xbde2eff0	-0.11080921
46	0x3e0ac5b4	0.1355198
47	0xbd24e412	-0.040256567
48	0x3db59b08	0.088674605
49	0x3e18ebb9	0.14933671
50	0x3d869660	0.065716505
51	0x3dd3fbe7	0.10350781
52	0xbd4511d0	-0.04811269
53	0xbe1d4aba	-0.15360537
54	0xbee26818	-0.44220042
55	0xbe68f671	-0.2275026
56	0x3d70a18d	0.058747817
57	0x3d9bf735	0.076155104
58	0xbe68b0f1	-0.22723748
59	0x3dccd1e1	0.10000969
60	0xbe9efe04	-0.31053174
61	0xbe215fdb	-0.15759222
62	0xbe0a5d8c	-0.13512248
63	0xbe3dde57	-0.18541847
64	0xbe006828	-0.12539732
65	0x3d9521f5	0.072818674
66	0xbe8ad799	-0.27117613
67	0xbda0561d	-0.07828925
68	0x3c8ab47d	0.016931767
69	0xbec721e6	-0.3889305
70	0x3d6b56e2	0.057455905
71	0x3d5f591a	0.054528333
72	0xbdc2ffca	-0.09521444
73	0x3ddb02dc	0.10693905
74	0x3e3fb1ce	0.18720171
75	0xbd6581f1	-0.056032125
76	0xbf1dfe21	-0.61715895
77	0xbdc937e2	-0.09825112
78	0xbd977b89	-0.07396609
79	0x3e006226	0.1253744
80	0xbf082168	-0.53175974
81	0xbe702fd8	-0.23455751
82	0xbea314c0	-0.31851768
83	0xbdd78f6c	-0.105254024
84	0x3de83999	0.11339111
85	0xbd03068c	-0.031988665
86	0xbe5a0e5f	-0.21294545
87	0xbe81d711	-0.25359395
88	0xbdf1bb89	-0.118033476
89	0x3d801168	0.0625332
90	0xbd7e2117	-0.062043276
91	0x3d9d7b64	0.076895505
92	0xbcdd8652	-0.027041588
93	0x3e859085	0.26086822
94	0x3e005aa6	0.1253458
95	0xbb67de8a	-0.0035380446
96	0x3db9212d	0.09039531
97	0xbf1b76bf	-0.6072807
98	0xbe1ad52b	-0.1512038
99	0xbe8cd699	-0.27507475
100	0x3e3856ec	0.18001908
101	0xbdbdcdaa	-0.09267743
102	0xbd6c68ad	-0.057717014
103	0x3dc7efe5	0.09762553
104	0x3cffbdd1	0.031218441
105	0x3e3887cb	0.18020551
106	0xbe85d43a	-0.2613848
107	0xbe871a52	-0.26387268
108	0x3c8d3d37	0.017241104
109	0x3eace666	0.3376953
110	0xbe18b1c2	-0.14911559
111	0xbddbf022	-0.10739161
112	0xbee98dde	-0.4561605
113	0xbc886046	-0.01664747
114	0x3e9d257d	0.30692664
115	0x3de5174e	0.11186086
116	0x3e225751	0.15853621
117	0xbd2dbbeb	-0.04241554
118	0xbd674b94	-0.05646856
119	0xbeeb8b4c	-0.46004713
120	0x3e9ee889	0.31036785
121	0xbe7713b1	-0.24128605
122	0xbe3cc9d4	-0.18436366
123	0xbe816eb7	-0.2527978
124	0x3db8a3b8	0.09015602
125	0xbf3e41b0	-0.7431898
126	0xbd9a2d42	-0.075281635
127	0x3dabf094	0.08395496
128	0xbe76ca4e	-0.2410061
129	0x3e0caa96	0.13736948
130	0x3db7c076	0.08972256
131	0x3ed145f4	0.40873682
132	0x3e3bedbf	0.18352412
133	0x3df36b30	0.11885679
134	0x3d9fab19	0.07796306
135	0xbe9fffc5	-0.31249824
136	0x3e28dc22	0.16490224
137	0xbcbd87dc	-0.023136072
138	0xbf2054f0	-0.62629604
139	0xbe375cf9	-0.1790656
140	0x3d7149e8	0.058908373
141	0x3df2cf37	0.11855929
142	0x3e25f2d8	0.16205919
143	0x3e3d2ef8	0.18474948
144	0xbd042006	-0.032257102
145	0xbe0d5657	-0.13802467
146	0x3b1aefa2	0.0023641367
147	0xbd9e1839	-0.07719464
148	0xbe29b998	-0.16574705
149	0x3da46687	0.08027368
150	0x3db868cb	0.09004363
151	0xbd7e8054	-0.062134102
152	0x3dd53b2c	0.10411677
153	0x3dd4c125	0.10388402
154	0xbea0c537	-0.31400463
155	0xbe9fc295	-0.31203142
156	0xbeb9cf75	-0.3629109
157	0x3de75bd8	0.11296815
158	0xbf1764da	-0.5913826
159	0x3e6c4522	0.23073247
160	0xbe3716b3	-0.17879753
161	0x3df55ce9	0.11980612
162	0x3dac77a9	0.08421261
163	0xbe318897	-0.17337261
164	0xbe81edb3	-0.25376663
165	0xbedb045a	-0.42776757
166	0xbd81de61	-0.063412435
167	0xbdfdf1ab	-0.1239961
168	0x3e27bab7	0.1637982
169	0xbd8d77d2	-0.069076195
170	0xbe930cd0	-0.28720713
171	0xbc7ab392	-0.015301602
172	0xbd950a9f	-0.072774164
173	0xbe814fec	-0.25256288
174	0x3d71a44e	0.058994584
175	0xbe25af5f	-0.1618018
176	0xbe1ed117	-0.15509449
177	0xbe80bccc	-0.2514404
178	0xbddafb82	-0.106925026
179	0xbcde12a3	-0.027108496
180	0xbda5bc91	-0.08092607
181	0x3e710c30	0.23539805
182	0xbf318560	-0.6934414
183	0x3e033f83	0.12817197
184	0xbdf4eb83	-0.11958983
185	0xbdf993f8	-0.12186426
186	0x3cd92aeb	0.026509723
187	0x3efead0e	0.49741405
188	0x3e439610	0.19100213
189	0x3ef1230c	0.4709705
190	0xbd564087	-0.05230763
191	0x3d474d5b	0.048657756
192	0x3dc5f2bb	0.09665438
193	0xbe17024a	-0.14746967
194	0x3e42b1c1	0.1901312
195	0xbeb19607	-0.34684774
196	0xbde93678	-0.11387342
197	0x3e49c48b	0.19703881
198	0xbe0c0fc7	-0.13677894
199	0xbe14a54a	-0.14516178
200	0xbe7ed369	-0.24885334
201	0xbd2fb06f	-0.04289287
202	0x3de6db9b	0.11272355
203	0xbf839d23	-1.0282329
204	0x3e23d5b9	0.15999497
205	0xbddb3b75	-0.107047
206	0x3d9d87ab	0.07691892
207	0xbe1be97b	-0.15225784
208	0x3bf8b688	0.007590119
209	0x3e2c276e	0.16811916
210	0x3ea726d9	0.32646826
211	0xbe5a6a88	-0.21329701
212	0xbe1bf69b	-0.15230791
213	0xbe86dcf1	-0.2634044
214	0xbdd0a0e8	-0.101869404
215	0xbd9f7eb8	-0.077878416
216	0x3d1b7100	0.037949562
217	0x3d9331a5	0.07187203
218	0xbda19174	-0.07889071
219	0xbe4242d4	-0.18970805
220	0xbd35ed3d	-0.0444157
221	0xbf39978f	-0.72496885
222	0xbe2fd6d7	-0.17171799
223	0x3ce18255	0.027527967
224	0xbe1363ca	-0.14393535
225	0x3e6b7439	0.22993554
226	0xbdffde72	-0.124936
227	0xbed49931	-0.41523126
228	0x3dde5e5d	0.10857842
229	0xbd1a6e1c	-0.037702665
230	0xbd5b98ba	-0.05361245
231	0xbd6ce6db	-0.05783735
232	0x3daf0d2c	0.08547434
233	0xbe1dd9b9	-0.15415086
234	0x3e88883b	0.26666436
235	0xbcbd21df	-0.02308744
236	0xbee380b9	-0.44434145
237	0xbea6b1ba	-0.3255747
238	0x3d16bee3	0.036803138
239	0x3d948eaf	0.07253777
240	0xbf1501fb	-0.58206147
241	0x3deca0dd	0.1155412
242	0xbe992d5d	-0.29917422
243	0xbdf542b8	-0.11975616
244	0xbb90190d	-0.0043975175
245	0xbda91394	-0.08255687
246	0xbe2bbcc4	-0.16771227
247	0x3eaddea9	0.3395894
248	0xbf3562c5	-0.70853835
249	0x3ce46946	0.02788223
250	0xbd585fd0	-0.05282575
251	0x3de972b6	0.113988325
252	0xbdc873c1	-0.09787703
253	0xbecf15de	-0.4044637
254	0x3c13c2aa	0.0090185795
255	0xbe2b7057	-0.16742073

fc2.bias f4 [10]
0	0x3d3e700e	0.046493582
1	0xbda55679	-0.08073134
2	0xbd4fb205	-0.050706882
3	0xbd7bddb2	-0.061490722
4	0x3d35cdab	0.044385593
5	0xbd9cb7f2	-0.07652272
6	0x3d0c3d6b	0.03423826
7	0x3ca8ac91	0.020590099
8	0x3eb201d6	0.34767026
9	0xbe36e324	-0.17860085
