models/sparse_mlp.pth (torch, 409595 bytes, 4 tensors)

fc1.weight f4 [128, 784]
00000000: 632e 9b39 da00 9539 9cf7 b8b9 143c 25b8
00000010: c0d8 1f36 f078 a3b8 6904 9b39 90ec 6b37
00000020: f06d 77b8 9c38 6db9 602c 2437 74d5 21b9
00000030: 760b ad38 239a 2c39 c072 4636 3cca 9439
00000040: e87b 7a37 aec5 ea38 0937 9b39 bc07 b936
00000050: beda 9e38 e67e 09b8 20ad 1fb7 048e 52b7
00000060: f6a4 55b8 e4d9 7d39 d847 f7b8 823c ef37
00000070: 7875 9ab7 5812 a3b7 6881 9238 10fe fe37
00000080: 6326 0939 b79f 8c38 7ec1 abb8 fe74 2239
00000090: 729e 2939 7883 5db8 f96b 3eb9 afc6 e038
000000a0: 002f 7bb5 10ae c537 a841 c4b8 ff46 1439
000000b0: 7b3e bc38 a02a 8038 169d aab8 f0b3 9bb6
000000c0: 3805 2939 2848 7737 089b aeb7 df70 6439
000000d0: 2b66 87b9 a367 9839 46a2 5db8 bcc3 a139
000000e0: 2836 86b8 be1b 0eb9 8cfb 09b9 9042 1137
000000f0: 5c0b de38 4ab5 1839 6c00 00b9 5739 8439
00000100: 1988 8f39 162b bf38 2022 bf38 fa56 1339
00000110: acbf 00b9 96b5 8cb7 a414 ba38 0397 cbb8
00000120: beaf c3b7 ffc1 82b8 8275 d3b8 3a13 8438
00000130: f5c8 aa39 fc3c c7b7 c66b 9fb8 f47a e937
00000140: c334 3e39 e81e 2039 cc8c 2fb9 0e8c bcb8
00000150: 33b0 9839 ee54 3239 bc1d 03b9 3e48 7538
00000160: 60ea 1036 fae5 a4b8 a704 ffb8 107b 7638
00000170: 72f1 7b39 87d2 93b8 ec94 8239 1b55 1639
00000180: b288 b2b8 c9b4 8938 c6fd cb37 28d7 1938
00000190: b952 a6b8 e1f4 9138 2405 3a39 28f2 8838
000001a0: 932f 3239 f239 2038 f0ca 1cb7 5445 0a39
000001b0: 0d1f 66b8 d0b6 57b7 30fb 1836 1751 9c39
000001c0: 26fe 2939 5e6e ad38 d015 47b7 87ae 6539
000001d0: 7acb 76b9 ae40 0d39 93e1 0bb9 a1c8 3539
000001e0: d816 b4b7 3ff2 05b9 54ed 33b8 3e62 1739
000001f0: 974d ddb8 87de ec38 f8b9 34b6 a62c a7b8
00000200: 68af a839 3132 2039 0ae7 1d38 44dd 8eb8
00000210: 2c04 cfb7 34fd 53b7 f010 9ab8 c450 7038
00000220: aa45 d1b7 46d8 4639 d723 eab8 bfb0 fab8
00000230: d331 8138 bcf6 a936 0c51 0ab9 e0e1 0839
00000240: 8024 1439 c40a 7839 2eca b238 92cc f3b8
00000250: fe83 14b8 c0ee 0039 343a b8b7 e283 b838
00000260: 5c1b e5b8 72a3 7b38 4e1d 7b39 fc0c 3238
00000270: 3a3c 40b8 4803 3ab7 0b18 81b9 8ada 2537
00000280: 4f29 e238 faec 27b9 92e4 1a38 2eeb 0e39
00000290: 73ee 5038 488d 8338 f6cc 54b8 9206 ec38
000002a0: cdc0 8ab8 bd4a 8537 e222 fdb8 48a7 93b9
000002b0: 0acb 2539 88d1 d437 887b edb8 e847 bcb8
000002c0: 9cad 1739 0e54 9039 1b9a c438 6a06 5039
000002d0: 2bf5 bbb8 e8d4 5f39 7883 1638 7e68 6639
000002e0: cb8a d938 d967 e638 3c46 fd37 de29 b638
000002f0: 9e36 7a39 3698 89b8 900f 0039 781e 8d38
00000300: 404b 8d39 4f60 9c38 2ff7 9c38 e011 8938
00000310: 54a3 5a38 0a1c 5bb8 cc5a fc38 a545 4239
00000320: 3e7a 66b8 f04d 9337 0433 1b38 cc19 88b8
00000330: 3104 bdb8 f339 05b9 a66c c338 8edf e3b7
00000340: 8ef7 93b8 6fb7 57b8 ff56 90b8 e9f5 d739
00000350: 00ac 6d34 b00d 23b6 49c4 6eb8 f875 8f38
00000360: 39c5 2a39 56f9 2f39 3483 6ab9 7b3a a739
00000370: 4a13 0bb9 1456 2339 5e7c 77b9 3b77 6139
00000380: 1f58 f9b8 064e 2539 9952 2239 92d5 06b9
00000390: fc06 92b8 0c03 85b7 5ef2 57b9 24c6 58b8
000003a0: 3471 e737 40f2 67b7 7637 77b8 43f1 6e39
000003b0: cf0a 7e38 2576 2239 e0b2 39b9 2440 e938
000003c0: 20ea 3236 e87c 6137 df0d f538 39a1 b938
000003d0: 8f73 56b9 729e cdb9 9a05 e937 2090 96b9
000003e0: 626d 39b8 23be bd38 56f1 cfb8 d07c b536
000003f0: 80df 5fb7 42e1 65b9 54a6 dcb7 649e 46b8
0.00029598465 0.0002842013 -0.00035279698 -3.9395018e-05 2.3819011e-06 -7.794972e-05 0.0002956719 1.40621705e-05
-5.8991776e-05 -0.0002262317 9.785494e-06 -0.00015433674 8.2514176e-05 0.00016460619 2.9571092e-06 0.00028379436
1.493001e-05 0.0001119481 0.00029604908 5.51433e-06 7.574771e-05 -3.278153e-05 -9.517447e-06 -1.2550041e-05
-5.093679e-05 0.00024209131 -0.0001179126 2.8519196e-05 -1.8412931e-05 -1.9439656e-05 6.985926e-05 3.0397467e-05
0.00013079638 6.7054694e-05 -8.189956e-05 0.00015493107 0.00016176121 -5.2812946e-05 -0.00018160035 0.0001071816
-9.357318e-07 2.3565284e-05 -9.358238e-05 0.00014140828 8.9761765e-05 6.111455e-05 -8.135491e-05 -4.6403075e-06
0.0001611904 1.4739147e-05 -2.0814608e-05 0.00021785822 -0.00025825328 0.00029068915 -5.2841635e-05 0.00030854146
-6.399705e-05 -0.0001355251 -0.00013159047 8.658171e-06 0.00010587901 0.00014563385 -0.00012207188 0.00025219723
0.00027376486 9.115615e-05 9.113946e-05 0.00014051414 -0.00012278435 -1.6773858e-05 8.873016e-05 -9.7079224e-05
-2.3327648e-05 -6.235018e-05 -0.000100831516 6.297832e-05 0.0003257465 -2.3751047e-05 -7.601785e-05 2.7833019e-05
0.00018139467 0.00015270303 -0.00016741751 -8.990626e-05 0.00029122978 0.00017007042 -0.0001250421 5.8479833e-05
2.1594096e-06 -7.862966e-05 -0.00012160214 5.876558e-05 0.00024027171 -7.04872e-05 0.00024906488 0.00014336819
-8.513163e-05 6.566343e-05 2.4317658e-05 3.6678422e-05 -7.930905e-05 6.959751e-05 0.00017740257 6.5300905e-05
0.00016993126 3.820094e-05 -9.345575e-06 0.00013186532 -5.486519e-05 -1.2857563e-05 2.2795975e-06 0.00029815055
0.00016211774 8.26984e-05 -1.1866403e-05 0.00021904158 -0.00023536189 0.00013470903 -0.00013340106 0.00017336245
-2.146831e-05 -0.00012774112 -4.2897955e-05 0.0001443708 -0.000105525534 0.00011294806 -2.6930338e-06 -7.971497e-05
0.00032174145 0.00015277487 3.764689e-05 -6.8123016e-05 -2.4678266e-05 -1.26355335e-05 -7.346447e-05 5.7295678e-05
-2.4947181e-05 0.0001896332 -0.00011164665 -0.000119538505 6.16048e-05 5.065316e-06 -0.00013190898 0.00013054116
0.00014127977 0.00023655134 8.52536e-05 -0.00011625247 -3.5408877e-05 0.00012295973 -2.1961612e-05 8.798369e-05
-0.00010924667 5.9995284e-05 0.00023948142 4.24506e-05 -4.5832458e-05 -1.1087228e-05 -0.0002462271 9.885649e-06
0.00010784214 -0.00016014642 3.6929334e-05 0.00013629787 4.9813138e-05 6.2728825e-05 -5.0735624e-05 0.00011254581
-6.616265e-05 1.5889638e-05 -0.000120704775 -0.0002816266 0.00015811264 2.536994e-05 -0.0001132405 -8.977932e-05
0.00014465157 0.00027528446 9.374713e-05 0.00019838815 -8.962521e-05 0.00021346251 3.5885227e-05 0.00021973436
0.000103732185 0.00010986598 3.0192656e-05 8.686235e-05 0.00023862204 -6.5610206e-05 0.00012212829 6.729079e-05
0.0002694968 7.4565985e-05 7.484701e-05 6.5359985e-05 5.212736e-05 -5.2239782e-05 0.000120332086 0.00018527226
-5.495012e-05 1.7560058e-05 3.700239e-05 -6.4897904e-05 -9.013003e-05 -0.00012705456 9.318562e-05 -2.716461e-05
-7.055617e-05 -5.143083e-05 -6.882659e-05 0.00041191213 2.2134918e-07 -2.429686e-06 -5.6926427e-05 6.840745e-05
0.00016285935 0.00016782185 -0.00022364856 0.00031896294 -0.00013263259 0.00015576958 -0.00023602086 0.00021502089
-0.00011889659 0.00015764692 0.00015480294 -0.00012858797 -6.9631235e-05 -1.5856254e-05 -0.00020594287 -5.1682946e-05
2.759006e-05 -1.3825076e-05 -5.894104e-05 0.00022787326 6.0568385e-05 0.00015493536 -0.00017709611 0.00011122253
2.6660346e-06 1.3440127e-05 0.00011685094 8.8515175e-05 -0.0002045168 -0.00039218698 2.7778373e-05 -0.0002871761
-4.4209308e-05 9.047638e-05 -9.9154815e-05 5.4087504e-06 -1.3343873e-05 -0.00021923057 -2.6303496e-05 -4.735439e-05

fc1.bias f4 [128]
00000000: 6044 82bd dccd 73be 89cd 22bd 4c8e 24bf
00000010: dfec 52be 6b8f 3a3e 5c19 44bd 14e6 eabe
00000020: a7a9 b6bc 5028 5cbd 4c11 11bd b973 d1bd
00000030: 1dad ecbc 0524 79bd 7fbb 85bd 6fbc 463e
00000040: f8e0 d7bc 256d 81bd 6c26 dbbd 6ea8 ad3e
00000050: 230d babc 5c0b 25be 7cf3 023f 56b1 26bd
00000060: 1fb1 b9bc 83e3 a7bd 99b4 76bd f4a1 fbbc
00000070: 1aaf f9be 8e6b 01bd dd5e 18be fb54 3ebd
00000080: bf3e a6bc eed6 26bd 2a66 c6bc 8b34 19bd
00000090: 80ab 0d3e 2309 6abd 2e7c 833c fa9c 1fbe
000000a0: da81 c3bc 0d55 303e 8744 31bd faf1 f0bc
000000b0: 4859 0cbc 4613 b1bc 3260 2bbd 7eee 9c3e
000000c0: 1c85 16bf 2877 dabc 639f 8cbd 3e9a d2bc
000000d0: 153c 83bc 35a8 86bd e228 92be 0d48 3dbd
000000e0: 30d1 4fbd 79b7 05bd df85 833c 41d1 cc3c
000000f0: b57b cc3d 7213 d23e b19f c2bc 62f8 2cbd
00000100: 4de0 9b3e 82b8 08bd 973d 1ebd 2891 a0bc
00000110: aa1a 033f 1b03 ddbc 2f7a 5abd d542 fc3e
00000120: 12ac bebc b171 6f3e 425f 97bd 1a41 12bd
00000130: 76ff acbd a46f 25bd 7dc5 a3bc 6cd7 293e
00000140: fee2 d9bc e436 cdbd ead6 dd3e c420 a4bd
00000150: c3f1 b93e bdb6 bd3e 2735 14be da1d acbd
00000160: 0430 bfbd 6823 6dbd 9fc1 b1bd b92f c0bc
00000170: a828 d9bc aaf1 f1bc 9987 b3bc 627b aabb
00000180: 8cac 57bd a869 c8bc 4484 d8bc 5f39 6fbd
00000190: 3215 55bd 0e1b bfbc a89e 853c c275 c4bc
000001a0: 8d12 85bd 8e12 c7bc 952d 213f b4fe ebbc
000001b0: 615b 2f3e d0c1 15bd b369 b7bd 4c7b 1cbf
000001c0: ed50 82bd 8e1d 37be ca7c 7a3d c83e 8dbe
000001d0: a394 bdbc 604a a1bc 6971 c3bc f14e a63c
000001e0: 4cfa 93bc d1aa 28be dddd 64bd 982d 1dbe
000001f0: 7363 58bd fbaa a33d c3ad e2be 97ca f8be
-0.06360698 -0.23808998 -0.039746795 -0.6427963 -0.20598172 0.18218772 -0.047875747 -0.4587866
-0.022297693 -0.053749382 -0.035416886 -0.102271505 -0.02889114 -0.060825367 -0.06529903 0.19407819
-0.02635239 -0.06319646 -0.10700688 0.33917564 -0.022711342 -0.16117615 0.5115278 -0.040696464
-0.022667466 -0.08197691 -0.060230825 -0.030716874 -0.48766404 -0.031596713 -0.14879937 -0.046467762
-0.020293592 -0.040732317 -0.024218637 -0.037403625 0.13834953 -0.05713762 0.016050424 -0.15587226
-0.023865629 0.17219944 -0.043278243 -0.029412258 -0.008566208 -0.021615636 -0.041839786 0.30650705
-0.5879686 -0.026668146 -0.06866338 -0.025708314 -0.01601986 -0.06575052 -0.28546816 -0.04621129
-0.050736606 -0.032645676 0.016055046 0.025002124 0.09984533 0.4103046 -0.023757787 -0.042229064
0.30444565 -0.033379085 -0.038632955 -0.019600466 0.5121256 -0.02697902 -0.05333918 0.4926974
-0.023275409 0.23383214 -0.07391216 -0.035706617 -0.08447163 -0.040389672 -0.01999163 0.16586083
-0.026597496 -0.10020235 0.4332803 -0.08014062 0.36317262 0.3705348 -0.14473401 -0.08404131
-0.0933533 -0.057895094 -0.086795084 -0.023460256 -0.026508644 -0.02953418 -0.021915244 -0.0052026967
-0.052654788 -0.024464443 -0.026430257 -0.058404323 -0.052022167 -0.02332833 0.016311005 -0.023981933
-0.06497679 -0.02430084 0.6296018 -0.028807975 0.17124702 -0.036561787 -0.089557074 -0.61125636
-0.063630916 -0.17882368 0.061154164 -0.2758696 -0.023142165 -0.019688785 -0.02385779 0.020301314
-0.018063687 -0.16471411 -0.055875648 -0.15349424 -0.052829217 0.07991596 -0.44273195 -0.48592064

fc2.weight f4 [10, 128]
00000000: b63f f03b 3643 0bbf 526a 08bf 272a 1fbe
00000010: ac8c 19be cede c83e 2120 86be cacb 67bf
00000020: 2322 bb3d d898 80be 6068 bc3d 0344 6e3e
00000030: 0e33 0ebe e3c1 6d3d fc45 0cbc efbf 633f
00000040: 3930 3cbe 234f 2ebe 132f 2fbf 2206 c73e
00000050: 3d33 f8bb 0c9d 8dbc 099a 9abe 5c19 db3d
00000060: 267b c6bd ac3a 003e b128 93be ad10 35be
00000070: 33de a73d 9703 bb3d b812 13bf 1342 0ebe
00000080: 7b28 6b3c 7e04 edbc aa5f cf3d 9b76 ce3e
00000090: c450 c8bf bec2 2bbf c827 12bf f420 0fbe
000000a0: 7a78 84bb ebcd 22be 2f66 85bd 1709 bdbd
000000b0: a4ae 92bd 8d86 bebc 75e3 35be 4af6 86bf
000000c0: ad71 673e 48ca 12bd b2b2 953c 1b8f 063b
000000d0: 25d0 65bc aa7b d03d 9897 54be 0b58 2ebd
000000e0: 9ab9 71bf cf88 b93d 5ba5 1f3e 190a 1b3e
000000f0: 7385 6bbe 4604 6bbf 7c23 2fbd d88b 0dbc
00000100: 8a66 a83e 9b3f a53c 0faa 143d a502 843e
00000110: b6d9 c53e 8603 32bd fc08 38bd d247 14be
00000120: 4183 2cbe dddc 0fbf c193 3f3d a604 43bc
00000130: 64d2 b9bf d2f1 a3bd e4cd 91bd 20fc 253e
00000140: 4847 68bd befc 4cbe 1689 c43d 033f 72bc
00000150: 8363 b83e 7235 013f 58e0 13bd 6e07 edba
00000160: d873 88be 95bf 80bd 5979 95bf bfc5 bd3d
00000170: 3a64 5b3e e8d3 303d 8bb1 1939 88e5 3e3f
00000180: 5a9b 0ebd f727 e43d af06 853d 9e79 42be
00000190: 903e 97b9 a740 cebd cdf9 0cbc 3916 b9bd
000001a0: 34fb 863e 63db 55bc ff87 873e b76b 8abb
000001b0: 73fe 9fbe 3a92 a1bd ce34 c13d a182 dfbe
000001c0: a238 643c c01f 99bd 3865 ff3d 5845 6abf
000001d0: 47c8 2d3d 62eb 06be 3c8a 7e3c 78b6 93bc
000001e0: 8cf0 233d a670 833e b897 023d dbb7 473e
000001f0: bca8 43be 1105 d83e e19d fbbd 0070 8cbf
00000200: 6794 2f3e 8630 2a3f 5210 86be 8068 3f3f
00000210: a8d0 a43e 2b3b 54be 7c67 343e 832b 7a3e
00000220: e2cd 66bd 5a87 fa3c 546d 2cbd bced dbbe
00000230: 8587 883d a7c7 88be 833d 4cbd 3f0d d93e
00000240: 2347 823d 08ba d0bd eaa0 323f 383a 923e
00000250: f5a4 febd a308 483e f6ce 643e aa15 b9bd
00000260: 9319 a4bc 9923 efbd c159 96be 443d d53d
00000270: ccfd 093f 788c c2bd 66d1 edbe 4f07 41be
00000280: 203f 20be 0067 28be 985e 7c3d 0f07 efbd
00000290: 7496 1ebe c024 c83d e899 3f3d afdd e13d
000002a0: 4024 76be 24f3 07c0 281a 5a3c 1552 18bd
000002b0: c4f0 d63d 45eb d5bd 8511 aa3d 526b 2ebe
000002c0: daf5 b9bd c29e 2f3d 695f 983d afa6 37be
000002d0: 1efd 1abf c97e f5bd 898c 6dbf 08d3 f1bc
000002e0: 6fd8 5a3e 6651 ec3c 7fca c2be c770 4bbf
000002f0: 1d40 d03e 3cf6 5a3e ea73 613d 14fc 8dbd
00000300: a8d5 553d f939 42bc ae66 1ebe 199d 31bf
00000310: 994b 40be 0194 bc3d bd5e 0a3e 0b1f 1bbf
00000320: 6782 e0bc 7623 92bf 81d0 bdbd 2d72 bf3c
00000330: 751a 083e 0a2f 993d b1f0 ecbc 7ca8 38bd
00000340: d5bf ee3d 99c4 2e3e 8cc8 9abd cf4a 703e
00000350: 1e2a 623f 80ef 58be 282a 1c3e 7282 61bf
00000360: 4606 dd3d 5126 683d eed0 5e3f a177 54bd
00000370: 6034 92be e841 283d b49c 85bc edb2 97bf
00000380: 7db5 fe3c 479d b3bd 39f1 1cbe 2783 8b3d
00000390: 9bec 183e b1c3 a3bd c9d0 99bf da2e 843d
000003a0: 2b04 b4bf 56d5 96bd fc87 53bf 8b08 f53e
000003b0: 0bd8 2ebf fc3d 2ebd 2211 e23c 28ab c73e
000003c0: 8623 8c37 60d0 8e3d f7a6 5bbf fcaa 96be
000003d0: 57c1 3fbe a049 243c f888 2ebc 7061 39bd
000003e0: 532d 9abe 8ffd 31be 6352 b2bd 3ff6 2abe
000003f0: f4dd fd3d dd2d 0a3e 3124 cabe 90da 583e
0.0073318137 -0.5439943 -0.5328723 -0.15543424 -0.14995068 0.39232486 -0.26196387 -0.9054533
0.091373704 -0.2511661 0.091995955 0.23268132 -0.13886663 0.058046233 -0.008561607 0.8896474
-0.1837777 -0.17022376 -0.68431205 0.38871866 -0.0075744675 -0.0172868 -0.30195644 0.10698196
-0.096914575 0.12522382 -0.28741983 -0.17682143 0.08196678 0.09131544 -0.5745044 -0.13892393
0.014352913 -0.028932806 0.10125668 0.40324864 -1.5649648 -0.6709403 -0.5709195 -0.13977414
-0.0040426822 -0.15898864 -0.065136306 -0.092302494 -0.07162216 -0.023257518 -0.17762549 -1.0543911
0.22601958 -0.03583744 0.018273685 0.0020532075 -0.014026676 0.10179837 -0.20760953 -0.042564433
-0.9442383 0.09059297 0.15590422 0.1514057 -0.23000126 -0.91803396 -0.04275845 -0.008639298
0.3289073 0.020171931 0.036294993 0.25783268 0.38642663 -0.04346039 -0.044930443 -0.14480522
-0.16846944 -0.56196386 0.04677177 -0.011902964 -1.4517331 -0.08005108 -0.07119349 0.1620946
-0.056708604 -0.20018288 0.095964596 -0.014785531 0.3601342 0.50472176 -0.036102623 -0.0018083879
-0.26650882 -0.062865414 -1.1677657 0.09266233 0.21424952 0.04317084 0.00014657357 0.74568987
-0.034816124 0.11140435 0.064954154 -0.18991706 -0.00028847577 -0.10070925 -0.008604479 -0.09037442
0.26363528 -0.013052794 0.26470944 -0.0042242664 -0.31248817 -0.07889219 0.094339 -0.4365435
0.013929518 -0.07476759 0.12470478 -0.9151206 0.042427327 -0.13175729 0.015535887 -0.018031344
0.040024325 0.2567188 0.03188297 0.19503729 -0.19107336 0.42191365 -0.122859724 -1.097168
0.17146455 0.6648029 -0.26184326 0.7476883 0.32190442 -0.20725696 0.17617601 0.24430661
-0.05634869 0.030582119 -0.04209645 -0.42954814 0.06666473 -0.26714823 -0.04986335 0.42392918
0.063612245 -0.10191733 0.69776785 0.28560042 -0.12433807 0.19534545 0.22344574 -0.09037335
-0.020031726 -0.116767116 -0.29365352 0.10412076 0.5390289 -0.094994485 -0.4644882 -0.18850444
-0.1564908 -0.16445541 0.06161365 -0.11671268 -0.15487081 0.097726345 0.046777636 0.11028611
-0.24037266 -2.1242151 0.0133119 -0.037187655 0.10495141 -0.10445265 0.08304123 -0.17033127
-0.090800956 0.042876013 0.07440073 -0.17934678 -0.60542476 -0.11987073 -0.92792565 -0.029519573
0.21371625 0.028847408 -0.38045117 -0.7946896 0.40673915 0.21382993 0.055042185 -0.06932846
0.05220571 -0.011854642 -0.15468857 -0.69380337 -0.18778838 0.09207917 0.13512702 -0.6059424
-0.02740593 -1.1417072 -0.092682846 0.023369873 0.13291343 0.07479675 -0.028923364 -0.045082554
0.11657683 0.17067184 -0.075577825 0.23466037 0.88345516 -0.21185112 0.15250456 -0.8808967
0.10792212 0.056677166 0.8703755 -0.0518719 -0.28555584 0.041078478 -0.016310073 -1.1851479
0.0310924 -0.08770233 -0.15326394 0.06812125 0.14934008 -0.079963095 -1.2016841 0.06454249
-1.4063772 -0.07364909 -0.8262937 0.4785808 -0.68298405 -0.04253958 0.02759606 0.3899777
1.6705842e-05 0.06973338 -0.85801643 -0.29427326 -0.18726097 0.010027319 -0.010652773 -0.04525894
-0.30112705 -0.17381881 -0.0870712 -0.16695498 0.1239585 0.13494058 -0.39480737 0.21177125

fc2.bias f4 [10]
00000000: b1a6 ccbd 8210 c0be 5833 c9bd f6bb b0be
00000010: 28c9 153e 9995 36be 7ab2 ea3c 30cb adbe
00000020: 6d97 7e3f 9b79 013d
-0.09992731 -0.37512594 -0.09824246 -0.34518403 0.14627516 -0.17830504 0.028649557 -0.33944082
0.9944981 0.031610113
