models/sparse_mlp.pth (torch, 409192 bytes, 4 tensors)

fc1.weight f4 [128, 784]
4.758175e-05 -7.28526e-05 -0.00015766069 -0.000111454865 8.473132e-05 -0.00017460748 4.5953002e-05 9.998948e-06
0.000433191 -0.00011778559 -7.500532e-05 -7.4116084e-05 3.7766178e-05 0.000107193104 0.0001772849 0.00011466436
0.00010588721 0.00018853796 -9.228164e-05 5.0505543e-05 -8.743706e-05 -9.2909795e-06 0.00021426167 -0.00011818285
-0.00018803058 7.989099e-05 -0.000111472735 4.7698253e-05 4.720177e-05 -9.248975e-05 4.7721827e-05 -0.0001439213
0.00016307717 -7.2639734e-05 -5.9141523e-05 -0.00011256721 -0.00017373762 8.7686065e-05 0.00026461357 0.00031599106
8.720053e-05 -6.6245484e-06 -0.00011833224 -0.00011193092 -2.3541763e-05 4.603018e-05 -0.00019581827 -3.3813383e-05
2.7035208e-05 3.6757992e-05 0.00010675624 -4.2453925e-05 -4.7831578e-05 -7.508667e-05 -0.00017442067 -8.9418274e-05
-0.00011137985 0.00017310957 0.0001148513 -1.6678598e-05 2.1778531e-05 -0.00015535075 -8.7450964e-05 -8.0272264e-05
-6.902819e-05 -3.201232e-05 -9.8427336e-05 -5.2356627e-06 7.51582e-05 9.137492e-05 3.369678e-05 2.7548522e-06
-1.0557189e-05 6.3036685e-05 -0.00011981299 -8.085626e-07 0.00010165366 -0.00012016792 -3.602002e-05 -0.00014568832
0.00011918064 4.4142835e-06 2.742256e-05 -4.1622618e-05 -9.57353e-05 -0.00013679288 -2.0643543e-05 -9.591478e-05
-5.976749e-05 4.2084786e-05 9.0330796e-05 8.055401e-05 0.00013970865 -0.00010201773 -9.269854e-05 -0.00012602586
0.00010201561 -0.00019883443 -0.00010162155 -9.246227e-05 -0.00012928213 0.00011928796 -1.1318545e-05 5.0004208e-05
5.5177632e-05 -6.3419706e-05 0.00012302547 -1.2406723e-05 -3.3931705e-05 0.00011506305 3.3790857e-05 7.9986086e-05
-0.0001510006 4.7196096e-05 0.00010719153 3.148649e-05 3.396417e-06 4.9051596e-07 -6.227094e-05 -7.269114e-05
0.00027719553 -3.683094e-05 -7.864865e-05 -0.0001597299 -7.530479e-05 9.364349e-05 -0.00014800188 0.00013106514
-9.843795e-06 -0.00011124569 -0.000111086905 0.00013970639 -0.00025247686 -7.398361e-05 -0.00010849857 5.4690638e-05
1.6882041e-06 5.0714447e-05 2.8870667e-05 5.6436635e-05 -9.249938e-05 0.00014006879 -0.00018613308 1.5341837e-05
0.000252571 0.00010937543 -0.00015186648 7.709679e-05 9.3175186e-05 0.00021760704 -6.233127e-05 -2.6276131e-05
-9.143725e-05 2.5738998e-05 -0.00026858444 0.00012202611 -2.0420293e-06 0.000108535714 0.000120180135 -9.526344e-05
5.598618e-05 1.748978e-05 6.139552e-05 -0.00038257617 3.5275298e-06 -3.87243e-05 -0.00018803778 0.0001069663
-0.00011762179 0.000118356475 0.00028099853 0.000107457745 0.00014636107 0.0002327023 -7.064027e-05 0.00019025229
0.00025913262 -8.0445745e-05 5.5643948e-05 -1.2413511e-05 6.655359e-05 0.0002339864 0.00022401902 0.00012815896
-1.3589066e-05 -5.336343e-05 8.696829e-05 -0.00022171374 -0.00020295185 0.00015359136 -1.16868505e-05 -3.0187657e-05
1.50968535e-05 8.937175e-06 -0.00019520077 0.00016302471 -0.00015743151 -0.00021296361 0.00016671835 0.000105813706
-0.00012032866 -0.00012421019 -8.3129584e-05 -9.763393e-05 -4.486621e-05 0.00022599232 -0.00016296671 -6.743085e-05
-7.026395e-05 5.1221563e-05 -9.053926e-05 -4.9248207e-05 -2.8040784e-05 -4.7302732e-05 0.00020119539 6.8611494e-05
-3.9574013e-05 0.00013117853 7.4096406e-06 9.680364e-05 3.1090916e-05 0.00031545677 -0.00020581519 -5.216876e-05
8.049283e-05 0.00013512216 -9.672638e-05 -9.018647e-05 2.7057424e-05 -4.85512e-05 -0.00017678848 0.00020212446
-4.3797467e-05 -0.00016291397 0.000120124634 0.00013911854 -2.2935252e-05 -4.607866e-05 -0.00023380821 -1.7602662e-05
4.2010975e-05 -0.00018510752 -0.0001096915 0.00014389702 -9.22118e-05 9.36339e-05 -0.00013012605 0.0002087065
-0.0001510633 -0.00010719895 1.0240234e-05 2.6912312e-06 -4.4744083e-05 -0.0001245461 -8.339397e-06 -7.002715e-05
00000000: 8492 4738 71c8 98b8 b851 25b9 e0bc e9b8
00000010: c8b1 b138 d716 37b9 a9bd 4038 28c1 2737
00000020: e91d e339 a803 f7b8 2d4c 9db8 c56e 9bb8
00000030: 2067 1e38 dccc e038 8ee5 3939 f677 f038
00000040: c30f de38 46b2 4539 5487 c1b8 ead5 5338
00000050: 6a5e b7b8 74e0 1bb7 6eab 6039 efd8 f7b8
00000060: 132a 45b9 268b a738 78c6 e9b8 9c0f 4838
00000070: 84fa 4538 0ef7 c1b8 ec28 4838 94e9 16b9
00000080: b2ff 2a39 2956 98b8 ba0e 78b8 1012 ecb8
00000090: 562d 36b9 19e4 b738 d5bb 8a39 9aab a539
000000a0: 6edf b638 7048 deb6 2329 f8b8 75bc eab8
000000b0: 8d7b c5b7 8810 4138 9154 4db9 d8d2 0db8
000000c0: abc9 e237 982c 1a38 52e2 df38 8e10 32b8
000000d0: c49e 48b8 d977 9db8 b1e4 36b9 1286 bbb8
000000e0: 9a94 e9b8 bf84 3539 52dc f038 04e9 8bb7
000000f0: 0ab1 b637 a6e5 22b9 e165 b7b8 d857 a8b8
00000100: 3ac3 90b8 f844 06b8 c66a ceb8 00ae afb6
00000110: 409e 9d38 89a0 bf38 a455 0d38 00e0 3836
00000120: c81e 31b7 9032 8438 1c44 fbb8 000c 59b5
00000130: e52e d538 a902 fcb8 3414 17b8 e9c3 18b9
00000140: 9ef0 f938 681e 9436 8009 e637 f293 2eb8
00000150: 7fc5 c8b8 0f70 0fb9 ac2b adb7 db25 c9b8
00000160: dbae 7ab8 3284 3038 fa6f bd38 1bef a838
00000170: c17e 1239 5af2 d5b8 2667 c2b8 cf25 04b9
00000180: 37f1 d538 367e 50b9 a71d d5b8 4ee8 c1b8
00000190: e88f 07b9 3c2a fa38 c8e4 3db7 9cbb 5138
000001a0: 886e 6738 3200 85b8 6600 0139 7826 50b7
000001b0: e451 0eb8 014e f138 a8ba 0d38 34be a738
000001c0: ea55 1eb9 6cf4 4538 04cc e038 5c10 0438
000001d0: 00ee 6336 00ac 0335 7597 82b8 c271 98b8
000001e0: 8e54 9139 ec7a 1ab8 2cf0 a4b8 2b7d 27b9
000001f0: f4ec 9db8 7762 c438 f430 1bb9 886e 0939
00000200: c726 25b7 934c e9b8 54f7 e8b8 267e 1239
00000210: df5e 84b9 a627 9bb8 ba89 e3b8 a063 6538
00000220: 4096 e235 39b6 5438 492f f237 60b6 6c38
00000230: 3afc c1b8 6edf 1239 b82c 43b9 58b2 8037
00000240: 816b 8439 7d60 e538 593e 1fb9 06af a138
00000250: 0c67 c338 722d 6439 d9b7 82b8 906b dcb7
00000260: 00c2 bfb8 14ea d737 cbd0 8cb9 45e8 ff38
00000270: cc09 09b6 ab9d e338 3809 fc38 2bc8 c7b8
00000280: b4d2 6a38 04b7 9237 78c1 8038 8194 c8b9
00000290: 80ba 6c36 e76b 22b8 022c 45b9 1853 e038
000002a0: b8ab f6b8 2636 f838 fc52 9339 f05a e138
000002b0: 8078 1939 8c01 7439 b524 94b8 767e 4739
000002c0: 31dc 8739 fbb4 a8b8 3c63 6938 a043 50b7
000002d0: b092 8b38 3f5a 7539 a6e6 6a39 6962 0639
000002e0: 98fc 63b7 8cd2 5fb8 bf62 b638 d47b 68b9
000002f0: 79cf 54b9 5e0d 2139 a412 44b7 803b fdb7
00000300: 7e48 7d37 e0f0 1537 cfae 4cb9 9df1 2a39
00000310: 3314 25b9 fc4e 5fb9 1ed1 2e39 4de8 dd38
00000320: f558 fcb8 6b3e 02b9 db55 aeb8 d1c0 ccb8
00000330: ba2e 3cb8 5af8 6c39 0be2 2ab9 a969 8db8
00000340: ac5a 93b8 bcd6 5638 e5df bdb8 dc8f 4eb8
00000350: 2039 ebb7 ec66 46b8 faf7 5239 84e3 8f38
00000360: 46fc 25b8 f88c 0939 54a0 f836 0f03 cb38
00000370: 9e67 0238 e463 a539 18d0 57b9 c8cf 5ab8
00000380: 42ce a838 94af 0d39 94d9 cab8 7e22 bdb8
00000390: 60f9 e237 74a3 4bb8 4c60 39b9 5ff1 5339
000003a0: 2cb3 37b8 e3d3 2ab9 6ceb fb38 59e0 1139
000003b0: 1465 c0b7 9644 41b8 6a2a 75b9 6ea9 93b7
000003c0: f134 3038 6c19 42b9 2d0a e6b8 10e3 1639
000003d0: d561 c1b8 515d c438 7272 08b9 39d8 5a39
000003e0: bf66 1eb9 00d0 e0b8 78cd 2b37 009b 3436
000003f0: 98ab 3bb8 9798 02b9 70e9 0bb7 8adb 92b8

fc1.bias f4 [128]
-0.02354181 -0.028122079 0.16531968 -0.17372298 0.04441427 -0.16306421 -0.03445187 -0.029941747
-0.046582844 -0.31648842 0.038567763 -0.030646104 -0.029423682 -0.024992116 -0.061274022 -0.051586762
-0.02727115 -0.3603812 -0.2297697 -0.019597445 -0.060677808 -0.019821279 0.26389015 -0.1572495
-0.037095238 0.49824765 -0.43213788 -0.06288281 0.36862323 -0.05822882 0.1947271 -0.031164188
-0.1878491 -0.02502571 0.3343507 0.041714802 -0.07676989 -0.07564674 0.1511676 -0.04549767
-0.057595205 -0.3161317 -0.06311077 -0.08490866 -0.22666804 -0.066791855 -0.09806336 -0.032093886
-0.031815127 -0.020403702 -0.022042258 -0.059429202 -0.060957987 -0.020112755 -0.25920323 -0.038450476
-0.06282767 0.13152058 -0.025404627 -0.11875276 0.18779151 -0.05334834 0.3182764 -0.24971916
-0.022328524 -0.08863819 -0.097694 0.15701641 -0.05945973 -0.018428236 -0.005945752 -0.037629712
-0.07561574 -0.013478465 -0.060949866 -0.18337724 0.23355667 -0.09131702 -0.10542927 0.06162331
-0.03313089 -0.47790712 -0.04699035 -0.6290617 0.5914782 -0.025276523 -0.06306681 -0.02059706
-0.037815806 0.18615772 -0.63402635 0.73660076 -0.025798002 0.6827959 -0.12763643 -0.03541257
0.08398316 -0.112375244 -0.023054728 -0.07074532 -0.029236618 -0.038891185 0.23634544 0.21001029
-0.05807057 -0.048912268 -0.107267804 -0.035439856 -0.046844345 0.12055614 -0.4556846 -0.021183563
-0.017584324 0.05856234 -0.018833546 -0.11646839 -0.32861423 -0.055956133 -0.13348576 -0.11260261
0.46678826 -0.040514555 -0.1727992 0.23292291 -0.031085428 -0.02626121 -0.07237208 -0.03545541
00000000: c1da c0bc 4660 e6bc 9049 293e 70e4 31be
00000010: bdeb 353d 4efa 26be 671d 0dbd 6548 f5bc
00000020: a7cd 3ebd c50a a2be 3bf9 1d3d 8a0d fbbc
00000030: ef09 f1bc 44bc ccbc 78fa 7abd a44c 53bd
00000040: bf67 dfbc e283 b8be c048 6bbe d28a a0bc
00000050: 4b89 78bd 3c60 a2bc 9c1c 873e 0306 21be
00000060: 2df1 17bd 511a ff3e 2d41 ddbe b4c8 80bd
00000070: 2fbc bc3e 5881 6ebd 8a66 473e 0a4c ffbc
00000080: 845b 40be b802 cdbc 0430 ab3e 24dd 2a3d
00000090: 8839 9dbd aeec 9abd aecb 1a3e c45b 3abd
000000a0: f3e8 6bbd 04dc a1be 3840 81bd 97e4 adbd
000000b0: ab1b 68be 2bca 88bd 71d5 c8bd e174 03bd
000000c0: 9450 02bd aa25 a7bc f791 b4bc 096c 73bd
000000d0: 15af 79bd 81c3 a4bc 49b6 84be 3f7e 1dbd
000000e0: cbab 80bd 55ad 063e 5d1d d0bc a634 f3bd
000000f0: 6b4c 403e ca83 5abd 20f5 a23e 61b6 7fbe
00000100: 4fea b6bc f087 b5bd cb13 c8bd e9c8 203e
00000110: 0c8c 73bd d0f6 96bc 95d4 c2bb 9d21 1abd
00000120: 6ddc 9abd c8d4 5cbc 91a6 79bd 3ec7 3bbe
00000130: 7b29 6f3e 6b04 bbbd 4deb d7bd b968 7c3d
00000140: 42b4 07bd 3eb0 f4be f478 40bd 300a 21bf
00000150: 1e6b 173f b610 cfbc 2c29 81bd 2abb a8bc
00000160: bfe4 1abd 21a0 3e3e 8d4f 22bf de91 3c3f
00000170: 5556 d3bc b6cb 2e3f 20b3 02be c50c 11bd
00000180: 5dff ab3d fe24 e6bd 45dd bcbc ece2 90bd
00000190: a281 efbc 5d4c 1fbd 8a04 723e f00c 573e
000001a0: 68db 6dbd 3b58 48bd 39af dbbd 6229 11bd
000001b0: dbdf 3fbd 23e6 f63d 7e4f e9be 2789 adbc
000001c0: 000d 90bc 10df 6f3d cf48 9abc fb86 eebd
000001d0: 2040 a8be 4232 65bd 7eb0 08be 329c e6bd
000001e0: dffe ee3e 97f2 25bd 46f2 30be 5883 6e3e
000001f0: dea6 febc c021 d7bc d037 94bd b139 11bd

fc2.weight f4 [10, 128]
-0.0782646 0.1247246 -0.37213638 -0.15950415 0.3832086 0.115609504 -0.064296246 0.14820474
-0.4348316 -0.0005983726 -1.2433482 -0.1779364 0.08793307 0.058307413 -0.31366116 -0.51751447
-0.016719595 -0.28466722 -0.26187092 0.12820265 -0.09476607 0.21436681 -0.16179793 0.12491828
0.006094477 0.47266898 -0.7671579 -0.00693486 0.23647222 0.010094498 -0.019424802 0.10853687
0.3129852 -0.0056510316 0.34150082 0.21183394 0.070042156 0.058140125 -0.5682992 -0.014770709
-0.075701855 0.18260801 -1.1386449 0.030262263 -0.35365745 -0.0070663076 0.22339123 0.034865506
-0.0313755 -0.18325508 -0.08757496 -0.42225057 -0.04093851 0.12371141 -0.7717288 -0.09681698
-0.09102077 0.15573725 -0.029000426 -0.1616799 -0.7766059 0.07067936 0.32073233 0.07327565
0.03964024 -0.20820123 -0.18193619 -0.054134242 0.14337446 -0.0435308 -0.5222425 -0.17089956
0.058813773 0.027505226 -0.124099895 0.27173948 0.8051971 0.052135333 0.11080033 0.008395655
-0.02152065 0.14643908 -0.011149243 -0.4182315 0.44980812 -0.08550649 -0.04585488 0.26207778
0.14559741 -0.17548105 -0.1020857 -0.10205316 0.055851698 -0.6347048 -0.75745016 -0.3283468
-1.2615287 -0.20078976 -0.12445095 0.1206467 0.079388715 -0.10593355 0.3791465 0.6029232
0.028468737 -0.107131734 0.44702977 0.018227195 0.110811986 -0.6601853 -0.27096453 -0.20768689
-0.006898852 0.27143523 0.13269414 -0.33052596 -0.7933058 -0.07541831 -1.8481932 0.29680583
-0.29942584 0.006105939 0.18287233 0.17753577 -0.13874117 -0.0492684 0.011763851 0.022047257
0.1521556 -0.14901243 0.84101623 0.14003392 0.5364798 -0.3174384 0.039094433 -0.17117092
0.10269356 0.08388909 0.049397387 0.046451043 -0.07744978 -0.12537727 -0.37722945 0.0340156
-0.036843035 -0.6375852 0.21878299 -0.08748969 -0.14867432 -0.19547203 -0.84712213 -0.009565763
0.0755239 -0.2664269 0.19462709 0.01903501 -0.28564087 -0.09025669 1.1326848 -0.06133505
-0.1719226 -0.027783055 -0.75191367 0.265315 -0.18598594 -0.076636955 1.0909082 0.06534398
-0.16920622 -0.2005105 0.080810204 -0.1582205 -0.597875 -0.03351827 -0.12036317 0.054233998
-0.03369636 0.0065423474 0.025578467 -0.6186188 0.10041435 -0.2232177 0.10341194 0.006783243
0.18813433 0.6489773 -0.010129453 -0.599668 -0.8042334 0.052951 -0.020232698 -0.48095623
-0.046966497 -0.23641099 0.010786959 -0.47849593 -0.13698395 0.08407049 -0.8068731 -0.13823023
-0.08434075 0.009404216 0.0281833 -0.7558516 0.16575529 -0.20353341 -0.044355884 -0.7058011
-0.4202789 -0.065829396 -0.14581583 0.82625777 -0.78778076 -0.15110989 -0.12061417 0.24369738
0.034559198 -0.60258603 0.47874755 -0.07320742 -0.014488709 0.2105272 -0.61951447 0.044137254
-0.22810717 0.088715784 0.004386492 -0.20312993 0.30001104 -0.11442477 0.1852874 -0.6760492
-0.1377411 0.16132787 -0.7464066 0.06975966 0.07347618 0.3892829 0.114489086 0.045759264
0.035796504 -0.007376451 0.031513225 0.80229247 0.39210597 0.016234355 -0.08706065 -0.35564476
-1.3473903 0.05709563 0.12222453 -0.9224514 -0.0081466865 0.06701899 -0.026389614 0.043872602
00000000: 3149 a0bd 9c6f ff3d a988 bebe 0e55 23be
00000010: eb33 c43e adc4 ec3d c0ad 83bd fcc2 173e
00000020: 3fa2 debe 1bdc 1cba 0926 9fbf f634 36be
00000030: 4116 b43d c1d3 6e3d 3298 a0be d47b 04bf
00000040: 88f7 88bc e7bf 91be f213 86be 8e47 033e
00000050: b714 c2bd f982 5b3e 5bae 25be 28d5 ff3d
00000060: 2eb4 c73b ab01 f23e 7664 44bf d23d e3bb
00000070: c625 723e 6563 253c c320 9fbc 9448 de3d
00000080: 993f a03e 4a2c b9bb 32d9 ae3e ffea 583e
00000090: 4372 8f3d 5724 6e3d 0e7c 11bf d800 72bc
000000a0: 9309 9bbd 98fd 3a3e 1ebf 91bf 91e8 f73c
000000b0: 9712 b5be 7c8c e7bb acc0 643e 22cf 0e3d
000000c0: 9983 00bd 38a7 3bbe 805a b3bd 3a31 d8be
000000d0: 24af 27bd 685c fd3d 0590 45bf fb47 c6bd
000000e0: 1969 babd 9679 1f3e 4d92 edbc 6a8f 25be
000000f0: a5cf 46bf 57c0 903d 0737 a43e 8b11 963d
00000100: ce5d 223d b432 55be 7b4d 3abe debb 5dbd
00000110: c1d0 123e 5a4d 32bd afb1 05bf 4b00 2fbe
00000120: b6e6 703d a452 e13c 1628 febd 7021 8b3e
00000130: 6621 4e3f dc8b 553d 49eb e23d ee8d 093c
00000140: 134c b0bc 20f4 153e 51ab 36bc 7022 d6be
00000150: 404d e63e 071e afbd 54d2 3bbd 0f2f 863e
00000160: 7d17 153e 4eb1 33be 4f12 d1bd 3f01 d1bd
00000170: c0c4 643d 047c 22bf 41e8 41bf 121d a8be
00000180: c679 a1bf d59b 4dbe 24e0 febd 9e15 f73d
00000190: 8d96 a23d b0f3 d8bd 7d1f c23e 2d59 1a3f
000001a0: 4537 e93c e267 dbbd 16e1 e43e 3351 953c
000001b0: 65f1 e23d e701 29bf ddbb 8abe dfab 54be
000001c0: c40f e2bb 8ff9 8a3e f9e0 073e b33a a9be
000001d0: 1716 4bbf ea74 9abd 9891 ecbf eff6 973e
000001e0: 584e 99be 5414 c83b e242 3b3e f0cb 353e
000001f0: 2a12 0ebe a9cd 49bd 2bbd 403c 739c b43c
00000200: adce 1b3e b796 18be d74c 573f 0d65 0f3e
00000210: bd56 093f 4987 a2be 7c21 203d 6e47 2fbe
00000220: 0051 d23d 0bce ab3d ea54 4a3d 7343 3e3d
00000230: fe9d 9ebd e662 00be 3824 c1be f153 0b3d
00000240: b9e8 16bd c938 23bf a608 603e cb2d b3bd
00000250: 153e 18be d229 48be ffdc 58bf b8b9 1cbc
00000260: 46ac 9a3d 1b69 88be 534c 473e 4fef 9b3c
00000270: 853f 92be 80d8 b8bd d1fb 903f 763a 7bbd
00000280: 7a0c 30be 4a99 e3bc 6a7d 40bf 5ed7 873e
00000290: 1973 3ebe d6f3 9cbd e1a2 8b3f 11d3 853d
000002a0: 6544 2dbe a052 4dbe d27f a53d 8e04 22be
000002b0: 560e 19bf 744a 09bd f780 f6bd 7824 5e3d
000002c0: 3205 0abd 3061 d63b ef89 d13c cd5d 1ebf
000002d0: 0aa6 cd3d 2e93 64be a4c9 d33d f745 de3b
000002e0: 49a6 403e 6023 263f 01f6 25bc d883 19bf
000002f0: 3de2 4dbf 26e3 583d 0bbf a5bc e53f f6be
00000300: f15f 40bd b915 72be c9bb 303c 6bfd f4be
00000310: 8545 0cbe 262d ac3d 3c8f 4ebf 3a8c 0dbe
00000320: d8ba acbd 2414 1a3c aae0 e63c 7e7f 41bf
00000330: c1bb 293e 106b 50be 84ae 35bd 62af 34bf
00000340: cc2e d7be 90d1 86bd bf50 15be a185 533f
00000350: 00ac 49bf 8dbc 1abe 9004 f7bd ce8b 793e
00000360: f28d 0d3d 1443 1abf 661e f53e c6ed 95bd
00000370: 0d62 6dbc 7194 573e 8098 1ebf 44c9 343d
00000380: ed94 69be 9fb0 b53d 90bc 8f3b 4b01 50be
00000390: 0c9b 993e 8957 eabd fbbb 3d3e 8f11 2dbf
000003a0: 010c 0dbe 2233 253e 8114 3fbf 27de 8e3d
000003b0: ae7a 963d 1750 c73e 4179 ea3d 116e 3b3d
000003c0: 5b9f 123d 28b6 f1bb 0314 013d 0a63 4d3f
000003d0: 1dc2 c83e e9fd 843c db4c b2bd 1217 b6be
000003e0: 4977 acbf 1bdd 693d db50 fa3d c625 6cbf
000003f0: ae79 05bc 4141 893d 082f d8bc c2b3 333d

fc2.bias f4 [10]
-0.0667023 -0.41769573 -0.11714612 -0.35240078 0.2974476 -0.25748196 0.0047335755 -0.39154384
1.0337639 0.038427576
00000000: 379b 88bd 37dc d5be 4eea efbd e06d b4be
00000010: 0d4b 983e add4 83be 1c1c 9b3b 6f78 c8be
00000020: 6052 843f 3c66 1d3d
