models/standard_mlp.pth (torch, 409208 bytes, 4 tensors)

fc1.weight f4 [128, 784]
000000 32 2c 94 3d e2 68 af 3c 9d 96 5f 3c f8 77 92 3d
       0.07234992 0.021412317 0.013646749 0.071517885
000010 44 90 68 3d a4 4f 4e 3d c7 81 a1 3c af 3c 3f 3c
       0.056778207 0.05036892 0.019715203 0.011672183
000020 e6 23 db 3c c0 81 0f 3d 9c ff 5f 3c 21 b0 c8 3c
       0.026750516 0.03503585 0.013671782 0.024498047
000030 fc a5 94 3d 28 29 03 3c 15 9b 8f 3d d5 02 11 3c
       0.072582215 0.008005418 0.070120014 0.008850773
000040 d8 32 8a 3d 5e 16 72 3d 73 fa a1 3c 8f 28 02 3d
       0.06747979 0.059103362 0.019772744 0.03177696
000050 76 07 53 3c cb 64 fd 3c a8 f4 42 3b 3c 51 4e 3d
       0.012880197 0.03093185 0.0029747877 0.05037044
000060 79 80 b6 3b c0 1b 3a 3d c9 b7 91 3d db 13 8c 3d
       0.0055695144 0.04543662 0.07115132 0.06839725
000070 01 55 0d 3d 5f 2b 96 3c 4e 8d 08 3d 7d 0f 36 3c
       0.034504894 0.018331228 0.033337884 0.011112091
000080 ff 07 4f 3c 3c c3 39 3d 48 3d 26 3c b8 fe 8b 3d
       0.012636184 0.045352206 0.0101464465 0.06835693
000090 a4 62 02 3d fc 6f e3 3c ff 8d 1a 3c a7 f9 79 3d
       0.031832352 0.02776336 0.009433269 0.061029103
0000a0 25 17 0f 3c 1c 3c 9b 3d 77 2f 0b 3d fd 20 65 3d
       0.008733545 0.07579824 0.033980813 0.055939663
0000b0 1b 38 2b 3d 26 6b 51 3c 05 16 f2 3b 1b fe ca 3c
       0.041801553 0.012781894 0.007387879 0.02477937
0000c0 54 24 0b 3c 8e 42 63 3d 0f 6f ff 3a 8e b4 32 3c
       0.008492548 0.055483393 0.0019488054 0.010907305
0000d0 e8 c4 93 3d 59 d6 59 3c 24 5b 2d 3d 8a 81 6d 3d
       0.07215291 0.013295733 0.042323247 0.057984866
0000e0 e7 90 a9 3c 48 96 2c 3d d2 b5 84 3d 8a e8 2f 3d
       0.020698978 0.042135507 0.06479992 0.042946376
0000f0 a5 91 7c 3d 3b 73 1c 3c b7 6b b9 3c c0 aa 4e 3d
       0.061662335 0.009548957 0.02263437 0.05045581
000100 c8 04 a7 3c 83 1e 3f 3d 4e 8f 88 3d ca f0 78 3d
       0.020388022 0.046659958 0.06667958 0.06077651
000110 84 80 d1 3c cb ae 59 3d 52 df 70 bc 01 e0 4f bc
       0.025573976 0.05314521 -0.014701681 -0.012687684
000120 2d 03 0b 3d ed 6d 0d 3d 02 d2 6a 3d 5f 8c 6e 3d
       0.033938576 0.03452866 0.057329185 0.058239337
000130 90 ca 45 3d c5 50 5c 3d a8 fe 8e 3c 1b 2d 89 3d
       0.04828888 0.053787965 0.017455414 0.06698056
000140 11 71 ef 3c f4 e9 de 3c 41 f8 37 3d 2e d1 3e 3c
       0.029228719 0.027211167 0.044914488 0.011646552
000150 54 74 b1 3c 32 83 04 3d 32 f1 55 3d f6 b9 42 3d
       0.021661915 0.03235168 0.052231975 0.047540627
000160 34 4c 4b 3d 7a 08 2d 3d 48 88 47 3d 22 2e e0 3c
       0.04963322 0.042244412 0.048713952 0.027365748
000170 fa 1f 36 bc d3 60 f1 3c 44 7e 96 3d ed 06 1e 3d
       -0.011116022 0.029465115 0.07348302 0.038580824
000180 e3 3f 39 3d 7a 70 8f 3e 36 a9 50 3e f9 f8 11 be
       0.045226943 0.280155 0.20377049 -0.14255132
000190 7b 85 f7 bc c6 dc b7 3d 72 5d 74 3c 48 2a 59 bd
       -0.030215016 0.08977656 0.014914857 -0.05301884
0001a0 ed 76 4c 3d 07 46 c8 3d 3e ff 18 ba 55 fd 28 3d
       0.049918104 0.09778982 -0.0005836374 0.04125722
0001b0 0a 74 45 3d 00 d7 00 3d 9b 21 b6 3b ae 1f 90 3c
       0.048206367 0.03145504 0.0055582053 0.017593231
0001c0 77 7a 8e 3d 06 df 75 3d 6c 18 94 3d e9 70 bd 3b
       0.06956952 0.060027145 0.072312206 0.005781282
0001d0 e1 37 df ba c7 81 96 3c a1 15 0a 3c b0 82 eb bc
       -0.0017030203 0.01837243 0.008428008 -0.02874884
0001e0 aa 67 de bd 3b 48 04 3c 31 78 60 be 25 ad 49 be
       -0.10859616 0.008073862 -0.2192085 -0.19694956
0001f0 a4 df 75 3d 0c 8b 7b 3e f1 06 3e 3e 70 49 94 3c
       0.060027733 0.24564761 0.18557335 0.018101424
000200 97 46 32 bd 05 ea f1 bd f9 78 4c 3d e1 4d 22 3e
       -0.04352435 -0.11812214 0.049920056 0.15850021
000210 fa 04 ef 3d d4 f5 01 3e b8 63 75 3e 4e 9e 4b 3d
       0.11670871 0.12691432 0.23963821 0.049711518
000220 41 03 0b be 8d 93 4e bd e1 5c 3a 3d f6 ab 32 3d
       -0.1357546 -0.050433684 0.045498732 0.043621026
000230 01 50 87 3c 88 4c 84 3d e6 4b 20 3b 0c 1a 87 3d
       0.016517641 0.0645991 0.0024459301 0.06596765
000240 d5 23 00 3e 22 88 e0 3d 87 7d 94 3d 08 be 81 bd
       0.12513669 0.10963465 0.07250505 -0.06335074
000250 92 4c 23 be ed 5d be bd 1b b5 6a 3b 6d 53 8a bd
       -0.15947178 -0.09295259 0.0035813514 -0.067541935
000260 16 dd 80 3c 7a de 4e 3e 96 57 9a 3e 2b bc 81 3e
       0.015730422 0.20202056 0.30144948 0.25338873
000270 66 be d2 3d 9f 36 6f 3d be 2b 8f be d4 a8 2f be
       0.10290222 0.0584017 -0.2796306 -0.17154247
000280 b7 0a 9c bd a5 e2 b7 3d e6 0d 43 3e d0 b4 f8 3c
       -0.07619231 0.08978776 0.1904827 0.030359656
000290 0d 2b ca bd 14 4c d6 bc d9 ad ce 3b d3 fa c4 3c
       -0.098714925 -0.026159324 0.0063073453 0.024045384
0002a0 f5 09 77 3c 4c ec 19 3d 7d 89 0e 3c 4d b5 86 3d
       0.015078058 0.037578866 0.008699772 0.06577549
0002b0 11 4e c8 3d 08 67 8a 3c a3 96 dc bd 0a ae e0 bd
       0.09780515 0.016894832 -0.10770919 -0.10970695
0002c0 da 2b 29 3d 5c bc c8 bd be a5 0a 3e 45 9b 68 3e
       0.041301586 -0.09801552 0.13539788 0.2271548
0002d0 63 5c 42 3e 83 df 50 3e ae 50 81 bb 22 86 e8 bd
       0.18980555 0.20397763 -0.0039463853 -0.11353709
0002e0 c9 bb 20 bd 56 6c 88 bc 4b 54 5d 3c 5f 96 9e bd
       -0.039241586 -0.016653221 0.013508867 -0.07743525
0002f0 48 50 74 be 97 c9 07 be 07 63 73 3d 3a f7 8e bd
       -0.2385875 -0.13260494 0.05942061 -0.069807485
000300 a9 f2 b2 bd 8b 9c 07 be 4d 8a 18 3d ef 77 93 3c
       -0.0873769 -0.1324331 0.03724127 0.018001525
000310 70 9d 1f 3c c8 04 8d 3d 69 5a 8a 3d ea 7d 3a 3d
       0.009742126 0.068856776 0.067555256 0.045530237
000320 42 7a 83 bb 59 ea 06 be c1 56 b3 bd e9 b2 fb 3d
       -0.004012377 -0.13175334 -0.08756781 0.12289984
000330 79 74 b6 3b f5 fe 17 3e 2b 41 05 3e 13 d0 1e 3e
       0.005568084 0.14843352 0.13013141 0.15509062
000340 f1 04 45 3e 7f b2 2f 3e 82 ae f1 bd 45 58 ee 3c
       0.19240166 0.17157935 -0.11800863 0.029094825
000350 c7 2e f8 3c 7c d1 2c 3e 1d 22 8e 3e 30 c4 f9 3d
       0.030295743 0.16876787 0.277604 0.12195623
000360 5b 74 90 bd 53 bb d4 bd fa c9 d7 bd 3d f6 b8 3d
       -0.07053443 -0.10387292 -0.10536571 0.09031341
000370 a8 24 b0 bc 7d 42 ee bd 2a a3 d5 3b 56 98 87 3d
       -0.021501854 -0.116337754 0.006519695 0.06620853
000380 e4 27 09 3d e9 76 92 3d 73 d6 b1 3d 03 b7 5b 3d
       0.03348531 0.071515866 0.08683481 0.05364133
000390 11 33 d0 bd 7f 2e 23 be b0 26 d3 3d 13 11 cd 3c
       -0.1016599 -0.15935706 0.103101134 0.025032556
0003a0 d6 2f 24 3d 03 08 af 3d 29 fc 9a 3a f8 17 d0 3c
       0.040084682 0.0854645 0.0011824417 0.025402054
0003b0 78 24 28 3e ac bc 07 3e 58 bf b2 bc 21 65 1f 3e
       0.16420162 0.13255566 -0.021819755 0.15565921
0003c0 41 b9 9c 3e 35 68 61 3e 98 63 41 3e 94 6c 9a 3d
       0.30610088 0.22012408 0.18885648 0.07540241
0003d0 1e d4 2b 3d 0b f6 a2 bd 78 89 3a bd a4 59 da 3d
       0.041950338 -0.07957085 -0.045541257 0.10661629
0003e0 57 f9 cb bd 7b 10 39 be 54 e0 ac bc ca ea 43 3d
       -0.09959667 -0.18072693 -0.021103062 0.047831334
0003f0 71 72 61 3c 21 c2 f7 3c 63 b1 d3 3c ec 02 cd ba
       0.013760195 0.030243935 0.02584142 -0.001564113

fc1.bias f4 [128]
000000 25 fa 94 bc 3c 48 4e 3b 3b 6c a6 bc e6 1a 1b 3c
       -0.018185684 0.003147616 -0.02031528 0.009466862
000010 dc eb 18 bd 49 60 23 3d bf 19 85 bd c5 d3 57 bd
       -0.037334308 0.039886747 -0.06499051 -0.052692194
000020 12 af df bc 2f 52 a8 bc 07 8a 2e bd a6 7b 03 3c
       -0.02730516 -0.020547 -0.042612102 0.008025086
000030 8b 82 37 bd dc de 92 bd be 29 f1 bb 05 ee 87 3b
       -0.04480223 -0.07171413 -0.0073597124 0.004148247
000040 e7 e3 ce bc 6f bc 9d 3c f0 d7 39 bd 59 47 49 3c
       -0.025255157 0.019254891 -0.04537195 0.012285077
000050 48 98 3d 3b 9c 7a 7b 3d bf 23 96 bb f6 48 3c bd
       0.0028929878 0.061396226 -0.004581898 -0.04596802
000060 db 15 20 bd 1a 87 99 bc 47 37 19 3c dc 35 1c 3d
       -0.039083343 -0.01874118 0.009351558 0.0381373
000070 3a c5 89 bb 98 0f ff 3c 9a 30 ae bc 72 04 cf bb
       -0.0042044194 0.031135365 -0.02126341 -0.0063176686
000080 53 af 9f bc 05 af 86 bd c7 1c b0 bb f9 6b 1f bd
       -0.01949278 -0.06576351 -0.0053745243 -0.03892133
000090 bf 6e 3c bd 92 33 55 bc 48 d1 a0 bc 6f cd 87 3d
       -0.046004053 -0.013012784 -0.019631043 0.0663098
0000a0 7c 5f 25 bd d3 c1 8c 3b fc f6 88 bd 82 2c 93 3c
       -0.040374264 0.0042955666 -0.066877335 0.017965559
0000b0 c3 4d 54 bc 84 1e e4 bc dc 7e 23 bb b1 73 90 bd
       -0.012957993 -0.027846582 -0.002494744 -0.070533164
0000c0 79 a4 26 bd ce 55 c5 bc d7 ed 04 3d 81 38 6f bc
       -0.040684197 -0.024088766 0.032453384 -0.014600874
0000d0 5c 32 50 bb 44 66 d2 bb 50 b0 9d 3a 50 b1 1d bc
       -0.0031768298 -0.0064208824 0.0012030695 -0.009624794
0000e0 cc 47 bc bc 96 94 6a 3c c5 ee bc bc e0 1e 20 bd
       -0.022983454 0.014317652 -0.023063073 -0.039091945
0000f0 c5 f8 7f bd f2 8c a9 b9 b3 a1 a9 bc 69 c9 0a 3b
       -0.062493104 -0.00032339204 -0.020706987 0.0021177179
000100 bc fc 2c bd 71 9a 1f bd 7e 55 b9 bc 14 d8 a5 bc
       -0.042233214 -0.038965646 -0.022623774 -0.020244636
000110 50 e5 fa 3c eb e5 56 bd 1f db 4c bd 39 de 5b 3c
       0.030626923 -0.05246536 -0.050013658 0.013419681
000120 47 56 85 3b 16 f0 91 bd 7f 49 39 bd c6 d3 09 3c
       0.004069123 -0.07125871 -0.045236107 0.008412307
000130 96 9f 47 3d 75 52 02 3b 0e a7 8d bd b0 1c 6b bb
       0.048736177 0.0019885574 -0.06916629 -0.0035875253
000140 4f b6 17 3d fc 73 44 bd b6 6a fd bc e9 c6 4a bd
       0.037039097 -0.047962174 -0.030934673 -0.0495061
000150 47 77 a4 39 18 77 b0 bb 56 c4 08 bd 70 9f 81 bd
       0.00031369386 -0.005385291 -0.033390366 -0.063292384
000160 56 b1 35 bd 90 f0 76 bb 29 4a 97 bd f1 35 01 3d
       -0.044358574 -0.0037680008 -0.07387192 0.031545583
000170 a7 9c b8 bb 95 ad 9b bc 23 59 24 bd 6d 3c 92 bd
       -0.005633909 -0.019003669 -0.04012407 -0.071404316
000180 61 b4 b4 bc 08 60 17 bd a3 74 45 bd 45 b1 bf bc
       -0.022058668 -0.036956817 -0.048206937 -0.023399958
000190 ec 20 5d bd a9 65 bf bc a8 92 1d 3c 62 2d 01 3d
       -0.053986475 -0.023363905 0.009617485 0.03153742
0001a0 b9 ae b4 3b eb 54 17 bd 34 68 df bc 26 8c 90 bd
       0.0055139926 -0.03694622 -0.027271368 -0.07057981
0001b0 4e 0b ea bc 50 50 73 bd 27 63 a0 bc f8 a6 85 bd
       -0.028569844 -0.059402764 -0.01957853 -0.065259874
0001c0 a2 4a df bb e9 7b bd bc 91 7c 82 bc dc 9f 55 bd
       -0.006814317 -0.023130374 -0.015928539 -0.052154407
0001d0 ae 6b b3 3c f6 18 2a 3d 58 1d f7 3b 14 56 75 bd
       0.021901932 0.04152771 0.00754134 -0.059896544
0001e0 62 b3 bf 3c 1d 7c fd bc 30 22 c3 3b 89 3e 02 bd
       0.023400966 -0.03094297 0.005955003 -0.03179792
0001f0 e1 fc b5 3d 7d d3 72 bb 26 77 e4 3b 6d 3a 33 bd
       0.088861234 -0.0037052326 0.0069722114 -0.04375689

fc2.weight f4 [10, 128]
000000 9d a4 6c 3e fd ad 85 3d a9 47 fc bd 36 fa 0f be
       0.2310967 0.06527326 -0.123183556 -0.14060292
000010 8a 3e 49 bc d8 45 72 3e 17 a0 25 3e 80 d5 4d bf
       -0.012282977 0.23659456 0.1617435 -0.804039
000020 04 19 70 bd a8 4c 82 3e e2 98 2a 3e 11 a0 44 3e
       -0.058617607 0.2544911 0.16659883 0.19201685
000030 07 82 fc bb 39 26 0d 3e 32 20 4b bd ff 56 a3 be
       -0.00770593 0.13784112 -0.04959125 -0.3190231
000040 16 6a bd be 66 d9 4d be 61 46 49 bb 9f f7 ca be
       -0.36995 -0.20102462 -0.0030712115 -0.39642045
000050 2c 8f 64 3d 6c a8 24 bd bb 9b c2 3c 43 aa 81 3d
       0.0558006 -0.040199682 0.023755899 0.06331303
000060 4a b0 9e be 9e de 8b be a7 dd 8e bc 4b f6 67 bd
       -0.30993873 -0.2731828 -0.017439676 -0.056631368
000070 7f 70 a4 3d 91 4c 10 bf a4 65 39 3d b2 48 1c 3e
       0.080292694 -0.5636683 0.045262948 0.15262106
000080 4f 8f 86 bc f6 f9 88 3e 1a 08 13 3e 9d c1 94 3e
       -0.016425757 0.26753205 0.14358559 0.29053965
000090 8f 54 3f 3e c6 a6 39 be 2b 5b 95 bd 18 4f 39 3d
       0.186846 -0.18130025 -0.072927795 0.045241445
0000a0 75 82 91 3d da 02 a7 be 6e 97 40 be 52 fa 0e 3e
       0.07104961 -0.32619363 -0.18807766 0.13962677
0000b0 77 f5 72 be 9c d7 4c bd c1 b2 cd bc fc 51 4b bd
       -0.2372645 -0.05001031 -0.02510965 -0.049638733
0000c0 3e c1 94 3e 28 96 25 3d ce 26 21 bd 44 f2 6d be
       0.29053682 0.040426403 -0.039343648 -0.23236948
0000d0 dc 60 2a 3e 54 03 bb be 6b 90 e2 3d 8f 3e a4 be
       0.16638511 -0.36525977 0.11062702 -0.32078978
0000e0 48 cc 8b be fb 9a 43 bd 1f 5a 76 be e7 c9 f8 bc
       -0.27304292 -0.047755223 -0.24057816 -0.030369712
0000f0 34 bf 9b be 6b 82 30 be 99 40 39 3d 9d 24 30 bd
       -0.30419314 -0.1723725 0.04522762 -0.043003667
000100 b4 eb c8 be a9 d0 d6 be b2 31 61 be 2c be 3b 3c
       -0.39242327 -0.4195607 -0.21991614 0.011458915
000110 a3 5a 22 3e 79 ac 95 be d7 30 c4 be a8 4a 0d bd
       0.15854888 -0.2923315 -0.38318512 -0.034495026
000120 27 05 c4 be a1 90 20 3d 81 a7 6c 3e 68 b1 23 3e
       -0.3828518 0.03920043 0.23110773 0.15985644
000130 17 81 cc 3d 96 fc 4a 3e 03 b9 51 3e 02 e2 3f 3e
       0.099855594 0.19822916 0.20480733 0.18738559
000140 b4 9c 05 3e 08 3f ae be 79 5d 85 3e 12 64 cb bc
       0.13048059 -0.34032464 0.26047876 -0.02482799
000150 08 13 e7 bb f5 48 eb be 23 d4 9d 3d 20 23 00 bc
       -0.0070518292 -0.459541 0.077064775 -0.007820874
000160 a1 a0 72 3e 0c 8a 76 be d4 9a 52 be 98 3d c5 be
       0.23694088 -0.24076098 -0.20566875 -0.38523555
000170 f9 ac 9f be 15 e9 35 3e 28 2c 8f be e5 c3 82 3d
       -0.31186655 0.17764695 -0.27963376 0.0638502
000180 d6 e5 1d 3d b7 43 25 3e 74 b2 25 3e 81 30 1c bf
       0.038549267 0.16139112 0.16181356 -0.6101151
000190 57 15 40 bf d2 c0 b8 be 4d 12 81 be 99 1c 8b 3d
       -0.7503256 -0.3608461 -0.25209275 0.06792564
0001a0 4e 59 ab bd 96 54 d7 3d ea bb fa 3d 0e e1 31 be
       -0.08366643 0.1051418 0.12242873 -0.17371008
0001b0 c2 d8 be be ef c7 5e be 29 a6 35 3e 31 1d 31 3e
       -0.37274748 -0.21755956 0.17739166 0.17296292
0001c0 69 da 1c be d7 0c bc be 52 35 8e be a4 96 72 bd
       -0.15317692 -0.36728546 -0.27775055 -0.059225693
0001d0 48 f3 43 3d be b6 f0 3d 94 90 2e bd fe 84 a4 3d
       0.047839433 0.11753605 -0.04261835 0.08033179
0001e0 71 f1 49 bc 9d fb bf be c3 89 e3 be 82 4d 1d bf
       -0.0123256305 -0.37496653 -0.4444104 -0.6144639
0001f0 4b d9 03 3d a3 04 0c bf 50 0e 35 3e 72 47 08 bf
       0.03218965 -0.54694575 0.17681241 -0.53234017
000200 e2 48 a8 be b8 f9 f1 be 19 0a 7a be 16 9d 87 bc
       -0.32868105 -0.47260833 -0.24417914 -0.016554397
000210 1c 95 c5 3e 33 a6 43 3e 3a fe e9 be 40 84 92 3b
       0.38590324 0.19106369 -0.45701772 0.004471332
000220 26 06 38 3d fb a0 63 be 6c 61 8d be a7 91 40 be
       0.04492774 -0.22229378 -0.2761339 -0.18805562
000230 64 b9 b5 3e 48 37 b8 3d 8f 1a c4 3c e2 5e dd 3d
       0.35493004 0.08994919 0.023938445 0.10809113
000240 d2 ff 86 3d 11 7d 9b 3e 01 f3 e7 3d 28 21 82 be
       0.065917626 0.30368856 0.11325646 -0.2541592
000250 91 a2 40 3e 45 96 37 3e 5b df a2 bd eb 64 d7 be
       0.18812014 0.17928417 -0.07952758 -0.42069182
000260 e3 d5 74 3d ac 0d 55 3d eb e3 02 be 0e 5c dc 3d
       0.05977429 0.05201499 -0.12782256 0.107597455
000270 98 fa 65 be 02 1a 42 be a4 d8 e5 3d 07 a1 12 3e
       -0.22458875 -0.18955234 0.112229615 0.1431924
000280 c6 ff a6 bd e5 84 97 be be 29 e7 bd 8f 4e 19 be
       -0.08154254 -0.29593578 -0.112872586 -0.14971374
000290 f2 a8 1c be 3b 67 2f be 73 e4 64 3d 9c 41 2f 3e
       -0.15298823 -0.17129223 0.05588193 0.17114872
0002a0 ed e2 44 3d 6e d8 d4 be fd e1 87 3d d1 77 cd be
       0.048067976 -0.41571373 0.06634901 -0.40130475
0002b0 59 86 fd bd 4f 48 41 3d 91 a8 8e 3e 40 35 90 bd
       -0.123791404 0.0471881 0.2786298 -0.07041407
0002c0 ad f2 e4 be f3 6a f0 3d e9 1f 82 be a1 e1 93 3d
       -0.44716397 0.11739149 -0.2541497 0.0722077
0002d0 86 91 6e bd 54 e8 4d 3e ee 60 a2 be 2d 10 17 bf
       -0.05824425 0.20108157 -0.31714576 -0.5900906
0002e0 3a 73 18 bf a1 69 04 bd 59 cf 83 3d 4d e8 ab bc
       -0.5955082 -0.032327298 0.06436033 -0.020984793
0002f0 95 73 7f 3e 47 73 c4 3c 56 7d 7e 3b 38 d8 61 be
       0.24946435 0.02398075 0.003883203 -0.22055137
000300 22 b8 91 bc 7e 1e 45 3d b1 88 d3 bd 70 11 4b be
       -0.017787997 0.048124783 -0.10328806 -0.1983087
000310 20 26 9a 3d 04 76 d1 3e 8a d7 ab bd fc 65 a4 bc
       0.07526803 0.4091035 -0.0839072 -0.020068161
000320 6e 8a 67 bd ea 4d 36 3d 45 ee f5 bc 14 92 c5 be
       -0.0565285 0.0445079 -0.030020842 -0.3858801
000330 5c 63 17 be 91 88 cf 3c 31 16 a0 3e e2 9d f8 3d
       -0.14783996 0.025333675 0.3126693 0.12139489
000340 b2 dd 87 3e 71 04 80 3e 54 e5 48 3e af e7 42 3c
       0.26536328 0.2500339 0.19618732 0.011896058
000350 ba 34 e3 3d 49 de 8e be 73 2c 38 3e 10 be 9d 3c
       0.11094041 -0.27903965 0.17985706 0.019255668
000360 69 2c 01 be 54 37 0d 3e a1 df 75 3e 95 ad cb bd
       -0.12614597 0.13790637 0.24011089 -0.099452175
000370 e6 e4 7e be 30 e2 8a 3e ed ff d2 3d 21 1e 03 bd
       -0.24892005 0.27125692 0.1030272 -0.032011155
000380 da 5d 49 3d 5c c4 88 be 0d 1c 9e bc 2a 24 c9 3d
       0.04916177 -0.2671231 -0.019300485 0.09821351
000390 f4 68 d5 3d 1c c4 ba be 4d cb 34 3d d7 14 fc be
       0.10420409 -0.36477745 0.044139195 -0.4923465
0003a0 2e 4a 9e bc 20 a9 89 be 4c a2 2e bd a8 75 66 3d
       -0.019322481 -0.26886845 -0.042635247 0.05626455
0003b0 33 47 8b 3d 9d 2a 9b 3d e9 65 8b bd d9 1c ca 3d
       0.068006895 0.07576487 -0.06806547 0.098687835
0003c0 d9 64 39 3c 80 37 81 3c 7b f6 30 be 68 c5 7b 3c
       0.011315548 0.015773535 -0.17281525 0.01536689
0003d0 41 02 4c 3d 4e ae 99 bd c6 5b 13 3d 19 16 9a be
       0.049806837 -0.07503949 0.035976194 -0.30094984
0003e0 06 3b c9 3e 76 42 48 bd 85 03 54 3d 64 67 88 bd
       0.39302844 -0.048891507 0.05176117 -0.06660345
0003f0 2f 11 17 be 3c c4 17 bd 93 e4 b3 3d d2 16 26 3e
       -0.14752649 -0.037052378 0.087838314 0.16219643

fc2.bias f4 [10]
000000 d9 3b 8b bd bb 6f 36 be 6e 26 80 bd 96 5f 21 3d
       -0.067985244 -0.1781606 -0.0625733 0.0393978
000010 db 6c 8c 3d 25 bb 37 be b9 08 6a bd bb c4 93 bd
       0.068567 -0.17942484 -0.057137225 -0.07215258
000020 2f d0 a2 3e 13 e6 5f 3c
       0.31799456 0.013665694
