models/standard_mlp.pth (torch, 409615 bytes, 4 tensors)

fc1.weight f4 [128, 784]
0	0x3d02aa79	0.031900857
1	0x3c622064	0.013801668
2	0xbcbed2a7	-0.023293806
3	0x3b755bd2	0.0037438762
4	0xba57e5ec	-0.000823586
5	0x3d084e20	0.03327763
6	0x3d323484	0.043507114
7	0x3d31f9e8	0.04345122
8	0x3c5096a8	0.012731232
9	0xbc156342	-0.009117903
10	0x3d1ca891	0.038246695
11	0xbcc0b95b	-0.023525884
12	0x3c00c501	0.007859469
13	0xbc5bf854	-0.013425905
14	0x3d350d9c	0.044202432
15	0x3c03818c	0.008026492
16	0x3ba3eb56	0.0050024195
17	0x3ca3079c	0.01990109
18	0x3d151ba4	0.036403313
19	0x3cc67a6a	0.024228293
20	0x3ce6ebdc	0.028188638
21	0x3cd522b0	0.026017517
22	0x3bcd2696	0.0062607033
23	0x3d1b3617	0.03789338
24	0x3cb1489e	0.021641072
25	0xbc9d53f0	-0.019205064
26	0x3c9645da	0.018343855
27	0xbc9fa92a	-0.019489843
28	0x3d0c601e	0.034271352
29	0x3c5f0d40	0.013613999
30	0xbb25b36a	-0.002528394
31	0xbc5be0bc	-0.01342028
32	0x3d0c3fb7	0.03424045
33	0xbccc1009	-0.02490999
34	0x3b4d5a54	0.0031334357
35	0x3c10f2b9	0.008846932
36	0x3cbd8751	0.023135813
37	0x3c483848	0.01222045
38	0x3cd27008	0.025688186
39	0x3cb82f23	0.022483414
40	0x3c74609c	0.014915612
41	0x3c8f41d7	0.01748745
42	0x3d219712	0.039450713
43	0x3d1e5158	0.038651794
44	0x3b14dbe4	0.0022714073
45	0xbbcb8f2d	-0.0062121362
46	0xbcaaf9a7	-0.020870997
47	0x3d0587c5	0.032600183
48	0x3ca84606	0.020541202
49	0xbac25bce	-0.0014828385
50	0xbbf1a9c5	-0.0073749744
51	0x3cf31ba4	0.029676266
52	0x3c9ecfd1	0.019386204
53	0x3c666e14	0.014064331
54	0x3d363a3a	0.044489123
55	0xbc446ed6	-0.011989316
56	0x3cc1ae01	0.023642542
57	0xbb88b9bf	-0.0041725333
58	0xba0f458b	-0.000546538
59	0xbc4f00f4	-0.012634505
60	0x3c8c9d6b	0.017164906
61	0xb98998d2	-0.00026244536
62	0xbc4728b6	-0.012155702
63	0x3c0afee4	0.008483622
64	0x3c3c3b78	0.011488788
65	0x3c90e76c	0.017688476
66	0xbbc252ad	-0.005930266
67	0x3a8b2e18	0.0010618595
68	0x3a89e7c8	0.0010521347
69	0x3b94f115	0.004545341
70	0xbab7fedf	-0.001403775
71	0xbc3baccc	-0.011454772
72	0xbb451db6	-0.0030077524
73	0xbcb71520	-0.02234894
74	0x3cfa9310	0.030587703
75	0xbc401ad7	-0.011725149
76	0x3c4bd408	0.012440689
77	0xbc40571f	-0.011739521
78	0x3cbea87f	0.023273705
79	0x3d30d9c8	0.043176442
80	0xbba446b4	-0.0050133113
81	0xbc05dc67	-0.008170224
82	0x3ca8f458	0.020624325
83	0x3d363b68	0.044490248
84	0x3cef4e88	0.029212251
85	0x3d030fe7	0.031997588
86	0xbca023e5	-0.019548366
87	0x3d1d5873	0.03841443
88	0x3c43b6c8	0.011945434
89	0x3cf25e46	0.029585969
90	0x3cbdf809	0.023189561
91	0x3c00beb5	0.007857968
92	0x3b903dea	0.004401912
93	0x3cc2adfe	0.023764607
94	0x3cad2df4	0.021140076
95	0x3c14d748	0.00908453
96	0x3d065d4b	0.032803815
97	0xbc35226f	-0.011055573
98	0xbbec9612	-0.007220038
99	0x3c8a5f96	0.016891282
100	0x3cfc8030	0.030822843
101	0x3d016930	0.031594455
102	0xbc341780	-0.010991931
103	0xbbab3f35	-0.0052260407
104	0xbb4e287a	-0.0031457231
105	0x3c9513ab	0.018197855
106	0x3d0b4b07	0.0340071
107	0x3c942dc6	0.018088233
108	0xbbcf9035	-0.0063343295
109	0xbc00ccc1	-0.007861317
110	0x3ca9d0b6	0.020729404
111	0x3d3464e8	0.044041544
112	0xbb121400	-0.0022289753
113	0x3d347e6a	0.04406587
114	0xbc9471ba	-0.018120635
115	0x3d349f4c	0.04409723
116	0x3c0de841	0.008661331
117	0xbc92a4a2	-0.017900769
118	0xbb98c440	-0.0046620667
119	0x3cbe3e7f	0.02322316
120	0x3cf95148	0.030434266
121	0x3c8521aa	0.016251404
122	0x3a2fc46b	0.0006704989
123	0xbd24e38b	-0.040256064
124	0xbcfed1db	-0.031105926
125	0x3ca395bd	0.019968862
126	0xbb0e93b2	-0.0021755514
127	0xbcef2430	-0.02919206
128	0x3c6076a8	0.013700165
129	0xbc59007b	-0.013244743
130	0xbc96b1f0	-0.018395394
131	0xbc565504	-0.013081793
132	0x3cd2dc97	0.025739951
133	0x3cd5d152	0.026100788
134	0x3d174cb0	0.03693837
135	0xbc6fba16	-0.014631769
136	0xba289b0b	-0.00064317946
137	0x3c760f0c	0.015018236
138	0xbc3e9e53	-0.011634427
139	0x3d0a688d	0.033791114
140	0x3c28b035	0.010295917
141	0x3bbac98e	0.0057002967
142	0x3b8cc916	0.0042964322
143	0x3d27bfaa	0.04095427
144	0x3d078945	0.033089895
145	0xbc7368da	-0.0148565415
146	0x3c8d6465	0.017259786
147	0xbbd49c24	-0.00648834
148	0xbc69c4eb	-0.01426814
149	0xbced4add	-0.028966362
150	0xbbdeade7	-0.006795633
151	0x3ca9396d	0.020657266
152	0xbb8a0e14	-0.004213104
153	0xbd0f05a1	-0.034917478
154	0xbcafec76	-0.021475058
155	0xbce42011	-0.027847322
156	0xbb182c67	-0.0023219825
157	0xbd0e273b	-0.03470538
158	0x3c5b9319	0.01340177
159	0xbcb6fc1a	-0.022337008
160	0x3d00675d	0.031348575
161	0xbcac4e52	-0.02103344
162	0xbc892a86	-0.01674391
163	0x3c2ff3ba	0.010739261
164	0x3c96b256	0.018395584
165	0x3c558b2c	0.013033669
166	0x3bab93bf	0.0052361186
167	0x3c30f0ed	0.010799629
168	0x3d0b75ae	0.034047775
169	0x3c86ebfb	0.016469946
170	0x3d13288c	0.03592734
171	0x3d1e855e	0.038701408
172	0x3c9ebe47	0.01937784
173	0xbb58dd01	-0.0033090713
174	0x3c90218c	0.017594121
175	0x3d007ab6	0.031367026
176	0x3bc9aa0a	0.0061543034
177	0xbcff06b2	-0.031131122
178	0x3bd1938d	0.0063957633
179	0x3a9369be	0.0011246724
180	0x3c5245a2	0.012833985
181	0xba065fb5	-0.0005125956
182	0xbc0398ea	-0.008032063
183	0x3cc95530	0.024576753
184	0x3a750e84	0.00093481713
185	0xbd18b9ea	-0.037286676
186	0x3c86c1db	0.01644986
187	0x3c5f5d02	0.013633015
188	0x3b5da6b6	0.0033821291
189	0x3cd6421b	0.026154568
190	0xbc6dd8ec	-0.01451705
191	0xbc77a5dd	-0.0151152285
192	0xbca36dd2	-0.019949827
193	0xbbbf44d8	-0.0058370642
194	0xbc0f2482	-0.0087367315
195	0x3bc1221e	0.0058939597
196	0x3cd15eda	0.025557924
197	0xbc9d4165	-0.019196222
198	0xbcb49297	-0.022042556
199	0xbc315f47	-0.010825939
200	0x3c051960	0.008123726
201	0x3d0e93ff	0.03480911
202	0xbbda610f	-0.0066644023
203	0xbc229823	-0.0099239675
204	0xbc7224ea	-0.014779309
205	0x3b656415	0.003500228
206	0xbcba95a1	-0.022776427
207	0x3c179ad9	0.009253227
208	0xb87f4434	-6.0860257e-05
209	0x3bf8d60a	0.007593875
210	0xbd09d67b	-0.03365181
211	0xbcd031be	-0.025414344
212	0xbcc7c3de	-0.024385389
213	0x3c9ebb43	0.019376403
214	0xbd1bb721	-0.038016442
215	0x3ce91a11	0.028454812
216	0x3ced9b5f	0.02900475
217	0x3c0d5e38	0.0086284205
218	0x3c774be9	0.015093782
219	0x3ce5b1c3	0.028038865
220	0xbb861418	-0.004091751
221	0x3d0bc5c1	0.03412414
222	0x3d04f088	0.03245595
223	0x3c91192c	0.017712198
224	0x3d2504ec	0.040287897
225	0xbc8707ae	-0.016483154
226	0x3c3af2c0	0.011410415
227	0x3d14cf03	0.036330234
228	0xbc34358a	-0.010999093
229	0x3b3966d5	0.0028290052
230	0xbc43f3da	-0.011959994
231	0x3cf99939	0.03046857
232	0x3cbe7431	0.023248764
233	0x3cd7d2f5	0.02634571
234	0xbc85139a	-0.016244698
235	0xbbf725f3	-0.0075423657
236	0xbc107426	-0.008816754
237	0xbc14dde2	-0.009086104
238	0x3c8f2cef	0.01747748
239	0xbc426b61	-0.011866421
240	0xbd148b28	-0.036265522
241	0xbc4d97c1	-0.012548388
242	0xbc8beefd	-0.017081732
243	0x3d0023e7	0.03128424
244	0x3ca80a8b	0.02051284
245	0xbcf69b12	-0.03010324
246	0x3ca5b6f4	0.02022884
247	0x3d13b0f2	0.03605742
248	0x3d166ef7	0.036726918
249	0x3d199581	0.037496094
250	0xbcb19d9a	-0.021681596
251	0x3d104834	0.03522511
252	0x3d1fc18c	0.03900294
253	0x3bba7b8e	0.0056909984
254	0x3cec4c24	0.0288449
255	0xbc9d055d	-0.019167596

fc1.bias f4 [128]
0	0xbc56223d	-0.0130696865
1	0xbb3f0855	-0.0029149253
2	0x3a79c8c2	0.00095285114
3	0xbbdcbdd8	-0.0067364983
4	0x3ca8d44b	0.020609042
5	0xbd0a0afa	-0.033701874
6	0x3cd09c01	0.025465013
7	0x3cb9be27	0.02267368
8	0xbd0ad384	-0.033893123
9	0xbc40b44f	-0.011761739
10	0xbca1a7a4	-0.019733258
11	0xbd021b43	-0.03176428
12	0x3c0554e0	0.008137912
13	0xbc9fdbc3	-0.01951397
14	0x3d383ca1	0.044979695
15	0xbc9ca722	-0.019122664
16	0xbc990fad	-0.018684233
17	0xbcc502d1	-0.024049195
18	0x3aaa4d4d	0.0012993008
19	0x3ba128a4	0.004918175
20	0xbce44feb	-0.02787014
21	0xbcd4bee9	-0.02596994
22	0x3c86d10c	0.016457103
23	0xbd26edbb	-0.04075406
24	0x3c1ba8e4	0.009500716
25	0x3d2eef48	0.042708665
26	0x3c47015f	0.012146323
27	0x3c2ed9be	0.010672031
28	0xbcc51cca	-0.02406158
29	0xbd39c1d4	-0.045350865
30	0x3c65862f	0.014009043
31	0xbd112839	-0.03543875
32	0xbbf53a0e	-0.0074837273
33	0xbdbf8a09	-0.093525
34	0xbd0405bc	-0.03223203
35	0xbbaa86b4	-0.005204046
36	0xbd4e2ad9	-0.05033383
37	0xbc829a13	-0.015942609
38	0xbd3731b4	-0.044725135
39	0xbcdf9581	-0.027292969
40	0x3c9d252d	0.019182766
41	0xbb9e2636	-0.0048263324
42	0xbc8f2ac5	-0.017476449
43	0xbd53be25	-0.051695008
44	0xbcb6fd39	-0.022337543
45	0xbbe41510	-0.0069605187
46	0xbbbd4bfe	-0.0057768812
47	0x3cbce8ea	0.02306028
48	0xbbca10c7	-0.006166551
49	0xbd0bada6	-0.03410115
50	0xbcaf9c28	-0.021436766
51	0xbc2ad5ba	-0.010426933
52	0xbc08926f	-0.008335694
53	0x3c146f1a	0.009059692
54	0xbd0773d6	-0.033069454
55	0xbd185ca2	-0.037197717
56	0xbcd4320e	-0.025902774
57	0xbd5556a7	-0.05208459
58	0xbcf57216	-0.029961627
59	0xba0cacbc	-0.00053663156
60	0x3d1286ec	0.035773203
61	0xbca9a31d	-0.020707661
62	0xbcd0ea29	-0.025502281
63	0x3ced2ef6	0.028953057
64	0x3c8f6503	0.01750422
65	0x3c035451	0.008015708
66	0xbd1e6a25	-0.038675446
67	0xbb0d1089	-0.0021524748
68	0xbd1d8979	-0.038461182
69	0x3d3c21e1	0.045930747
70	0xbd1893fb	-0.0372505
71	0xbb5c50d3	-0.003361751
72	0xbbe00d4d	-0.006837523
73	0xbd33bbda	-0.04388032
74	0xbd9fcb2d	-0.078024246
75	0x3c1b5f46	0.009483164
76	0xbd4a9f35	-0.049468238
77	0x3cfc0b61	0.030767145
78	0x3bc8bc90	0.006125994
79	0xbd62e44e	-0.05539351
80	0xbd3b31a1	-0.045701627
81	0xbd99c1ff	-0.07507705
82	0xba2c1821	-0.0006564875
83	0xbd1269fa	-0.0357456
84	0xbd52737f	-0.051379677
85	0xbdec44f8	-0.11536592
86	0x3c2b1cbf	0.010443865
87	0xbd0318b5	-0.032005984
88	0xbc2e4410	-0.010636345
89	0x3a772e1c	0.0009429173
90	0xbd4e90bb	-0.050430994
91	0x3a503afe	0.0007943361
92	0x3c97f6a3	0.018550223
93	0xbbb103fa	-0.0054020854
94	0xbd852ed6	-0.06503074
95	0x3c7c7fb4	0.015411306
96	0x3ab134af	0.0013519729
97	0x3ac77f5b	0.001522045
98	0xbd2b025e	-0.041750304
99	0xbd63ee7d	-0.055647362
100	0xbd657963	-0.056023967
101	0xbda0c0bd	-0.07849262
102	0x3cadfc70	0.021238536
103	0x3b5001c9	0.0031739345
104	0xbcee903b	-0.029121509
105	0xbc7807f3	-0.015138614
106	0xbd05bc4a	-0.03265027
107	0xbd35518d	-0.044267226
108	0xbcd3a4b3	-0.02583537
109	0xbbfe87c4	-0.0077676494
110	0xbca158a9	-0.019695597
111	0xbc999321	-0.018746914
112	0xbc95e396	-0.018296998
113	0xbbcf948f	-0.0063348482
114	0xbd1be77c	-0.038062558
115	0xbd38698d	-0.045022536
116	0xbcc4a2c7	-0.0240034
117	0xbd142521	-0.03616822
118	0xbc4bb61f	-0.012433558
119	0x3ca2f822	0.01989371
120	0xbdaa7190	-0.083224416
121	0xbc3e0c8d	-0.011599672
122	0xbd295967	-0.041345026
123	0x3bbb51aa	0.005716522
124	0xbd217bd5	-0.039424736
125	0xbcc2fd0a	-0.023802299
126	0xbd0f5429	-0.03499237
127	0x3b949ce0	0.0045353025

fc2.weight f4 [10, 128]
0	0x3d2d1de3	0.04226483
1	0xba8ef9ec	-0.0010908223
2	0xbf2f7607	-0.6853947
3	0x3d9f3a04	0.077747375
4	0xbedfcfe5	-0.43713298
5	0x3d81b5ea	0.063335255
6	0x3dda8138	0.10669178
7	0x3e45615e	0.19275424
8	0xbeaef6d0	-0.34172678
9	0x3dea6b36	0.1144623
10	0xbed76c5b	-0.42074856
11	0xbd151fdc	-0.036407337
12	0xbf0df301	-0.5544892
13	0xbc8be988	-0.01707913
14	0x3e07e57d	0.13271137
15	0xbdae755f	-0.085184805
16	0xbed8085c	-0.42193878
17	0xbd22cae3	-0.03974427
18	0xbdb7fcb5	-0.08983747
19	0xbd1b179c	-0.037864313
20	0xbea8f614	-0.33000243
21	0x3e89e20e	0.2693028
22	0xbe17c1a2	-0.14819959
23	0xbe903575	-0.28165784
24	0x3e18e0b8	0.14929473
25	0xbf0081d9	-0.5019813
26	0x3cf7d68f	0.030253677
27	0x3e323c2f	0.1740577
28	0x3d9352c4	0.07193521
29	0xbdedc709	-0.116102286
30	0x3e8209a5	0.25397983
31	0x3e03a28e	0.12854978
32	0xbd0c5514	-0.034260824
33	0xbd732deb	-0.059369963
34	0x3e005d9a	0.12535706
35	0x3e3b943a	0.18318263
36	0xbe601051	-0.21881224
37	0xbf15b652	-0.58481324
38	0xbe9c4d3e	-0.3052768
39	0xbe907e05	-0.28221145
40	0xbd8baa96	-0.06819646
41	0x3eadb974	0.33930552
42	0xbd307b7c	-0.043086514
43	0x3e9b6b5f	0.30355355
44	0xbe8efae5	-0.27925792
45	0xbede431d	-0.43410578
46	0xbc82b122	-0.015953604
47	0xbcdf943f	-0.027292369
48	0xbeff5bbb	-0.49874672
49	0x3e78a597	0.24281918
50	0x3d91b6eb	0.07114967
51	0xbec811fa	-0.39076215
52	0xbe317fb7	-0.17333876
53	0x3d5696eb	0.05239002
54	0xbe54333c	-0.2072267
55	0xbee086ce	-0.43852848
56	0x3e0105d0	0.12599874
57	0xbd20e567	-0.039281275
58	0xbe224f6a	-0.15850607
59	0x3d2434d7	0.040089455
60	0x3d60e196	0.054902636
61	0xbe4ee1eb	-0.20203368
62	0xbd823982	-0.06358625
63	0xbba72f9e	-0.005102112
64	0x3e226ff3	0.15863018
65	0xbe471eb2	-0.19445303
66	0x3dc09468	0.09403306
67	0xbe84c199	-0.25928953
68	0xbc9dbd50	-0.01925531
69	0xbe9e6176	-0.30933732
70	0xbd8f05a4	-0.06983498
71	0xbe933926	-0.28754538
72	0xbe1a43d2	-0.15064934
73	0x3daebf12	0.085325375
74	0xbd10fc30	-0.035396755
75	0x3d249114	0.04017742
76	0xbeed36e2	-0.46330935
77	0x3e1246b4	0.14284784
78	0xbe2f0cb7	-0.17094694
79	0x3dc24438	0.09485668
80	0x3d44eadc	0.04807554
81	0x3e8e3b00	0.27779388
82	0xbd025725	-0.03182139
83	0xbe801107	-0.2501299
84	0x3e1687bb	0.14700215
85	0x3e1fd1d0	0.15607381
86	0xbe86ccd6	-0.26328152
87	0x3d40e610	0.047094405
88	0xbe377791	-0.17916705
89	0xbe0414cf	-0.12898563
90	0x3e3f5733	0.18685608
91	0x3e056b80	0.13029289
92	0x3e0bdc7c	0.13658327
93	0x3b86f0a5	0.0041180425
94	0x3e063c26	0.13108882
95	0x3e30113d	0.17194076
96	0xbd509c5e	-0.050930373
97	0x3ca6855f	0.020327268
98	0xbd8353eb	-0.064124905
99	0xbc93e7ec	-0.018054925
100	0xbe28ee6a	-0.16497198
101	0x3c6fb5c8	0.014630742
102	0xbd4edc78	-0.050503224
103	0xbf10412f	-0.5634946
104	0xbda1bade	-0.0789697
105	0xbdeaf29c	-0.11472055
106	0x3d7e22c9	0.062044892
107	0x3e3defb6	0.18548474
108	0x3d87e5cc	0.06635627
109	0xbb5bb41d	-0.0033524104
110	0x3d85ce2f	0.06533467
111	0x3dcfdcc9	0.10149533
112	0x3d85e31a	0.06537457
113	0x3baf5300	0.0053504705
114	0x3e0cd88a	0.13754478
115	0x3e599c5e	0.21251056
116	0x3e43c5c4	0.1911841
117	0xbe955f44	-0.29174244
118	0x3dd18172	0.10229768
119	0xbeac81c1	-0.33692744
120	0xbe0e50cd	-0.1389801
121	0xbedca7d1	-0.43096784
122	0x3e28aec8	0.16472924
123	0xbf4a3274	-0.78983235
124	0x3dd8b480	0.10581303
125	0xbefcbbfd	-0.49362174
126	0x3e27f96e	0.16403744
127	0xbc61deb4	-0.013786007
128	0x3d941727	0.072309785
129	0xbd891c81	-0.0669489
130	0xbe04282c	-0.1290595
131	0xbd8feba5	-0.070273675
132	0xbe9e1800	-0.30877686
133	0x3e2abc27	0.16673337
134	0xbf25014b	-0.644551
135	0x3e8cb0f6	0.2747876
136	0xbefaaa53	-0.48958072
137	0xbc4cbe07	-0.012496478
138	0xbbe8d664	-0.0071056355
139	0xbe3bd796	-0.18343958
140	0x3e7725eb	0.24135558
141	0xbd008135	-0.03137322
142	0xbcfe843c	-0.031068914
143	0x3f038646	0.5137676
144	0xbe1f1c7f	-0.15538214
145	0xbec1e18a	-0.37867385
146	0x3cd6a504	0.026201732
147	0xbe244d15	-0.1604503
148	0x3b4c69f0	0.0031191073
149	0xbebe1e4c	-0.3713249
150	0xbe740d57	-0.23833214
151	0x3e0501a4	0.12988907
152	0xbe00cfbe	-0.12579247
153	0x3e07376e	0.13204738
154	0xbf062c2a	-0.5241114
155	0xbda870c2	-0.08224632
156	0xbeec6ed6	-0.4617831
157	0x3d7f8150	0.06237918
158	0xbd10c6ca	-0.03534583
159	0xbec7b309	-0.3900378
160	0xbb4b3055	-0.003100415
161	0x3dda5c49	0.10662133
162	0xbefdc1f4	-0.49562037
163	0x3e7d31e3	0.24726062
164	0x3dcaef3e	0.09908913
165	0xbe325d1e	-0.17418334
166	0x3c58e47b	0.013238068
167	0x3e515312	0.20441845
168	0x39bcf2a0	0.00036038924
169	0xbda44eac	-0.08022818
170	0xbd6550f4	-0.055985406
171	0x3db4f0d6	0.08834998
172	0x3e225148	0.15851319
173	0x3e122e60	0.14275503
174	0x3dbd800e	0.0925294
175	0xbeb14f72	-0.34630924
176	0x3dbd1864	0.09233168
177	0xbd2acb8f	-0.041698035
178	0xbe3ba312	-0.18323925
179	0xbe38f33c	-0.18061537
180	0xbebbeaeb	-0.36702666
181	0xbb107c58	-0.002204677
182	0x3dc6788f	0.096909635
183	0xbdb05afa	-0.086111024
184	0x3e9f4c88	0.31113076
185	0xbd4406f8	-0.04785821
186	0x3caa10fa	0.020760048
187	0xbeb96a33	-0.36213836
188	0xbd46d6a4	-0.04854454
189	0x3e4719c2	0.1944342
190	0xbedabc6f	-0.42721888
191	0xbec36fa2	-0.38171107
192	0x3da12662	0.07868649
193	0x3e6b6c5a	0.22990552
194	0xbebd4d95	-0.36973253
195	0xbdf5fe0b	-0.120113455
196	0xbc695467	-0.0142413145
197	0x3d909048	0.070587695
198	0x3c9cdb3a	0.019147504
199	0x3d81ac5f	0.06331705
200	0x3d72db1d	0.059290994
201	0xbdef1d59	-0.116755195
202	0xbeaf8f30	-0.3428893
203	0xbda6b302	-0.08139612
204	0x3e19f1ca	0.15033641
205	0x3eb471f2	0.35243183
206	0xbdc5a65f	-0.096508734
207	0xbf06d80c	-0.5267341
208	0xbe317165	-0.17328413
209	0x3d533835	0.051567275
210	0xbc2c7310	-0.01052548
211	0x3d67cbbe	0.056590788
212	0x3e9bbaef	0.30416057
213	0x3e32125a	0.17389813
214	0x3e542648	0.20717728
215	0x3e050806	0.12991342
216	0x3e89a75b	0.26885495
217	0xbcee5968	-0.029095367
218	0xbec02c93	-0.37534007
219	0xbd6dfe8e	-0.05810409
220	0xbe21f23c	-0.15815061
221	0xbe68a6aa	-0.22719827
222	0x3d81c4f9	0.06336398
223	0xbeb176bc	-0.346609
224	0x3cc23564	0.0237071
225	0x3d8dd467	0.06925278
226	0x3e846b1a	0.25862962
227	0x3de386fb	0.1110973
228	0x3d88e7b8	0.06684822
229	0x3e92bf0b	0.2866138
230	0x3d9905f4	0.074718386
231	0xbe798723	-0.24367957
232	0x3d73aa04	0.05948831
233	0xbc7bc843	-0.01536757
234	0x3d9d41d9	0.07678575
235	0xbcf9c739	-0.030490505
236	0x3da3a4b1	0.07990397
237	0xbec87435	-0.3915116
238	0x3d7e066f	0.062017854
239	0xbe8ccfd5	-0.27502313
240	0x3ea3963b	0.31950554
241	0x3d5fb406	0.054615043
242	0xbcfbca38	-0.030736074
243	0x3f0664c6	0.5249752
244	0x3c7ad3c9	0.015309283
245	0xbe226bab	-0.15861385
246	0xbdaa53f5	-0.08316795
247	0xbda3ab0c	-0.07991609
248	0x3e73d3ac	0.23811215
249	0x3e930d11	0.28720906
250	0x3ea74f0c	0.32677495
251	0xbf3adc40	-0.72992325
252	0xbe363d68	-0.17796862
253	0xbc95fd5e	-0.018309291
254	0xbe0ab4e8	-0.13545573
255	0xbd00e78d	-0.031470824

fc2.bias f4 [10]
0	0x3d45b0d0	0.048264325
1	0xbdd4d79b	-0.10392686
2	0xbdcb1884	-0.09916785
3	0xbd0184d8	-0.03162083
4	0x3dd808e5	0.105485715
5	0xbc097bf9	-0.008391374
6	0x3c646451	0.013939933
7	0xbe3f1ee5	-0.18664129
8	0x3ec73907	0.38910696
9	0xbcef59ed	-0.029217685
