models/standard_mlp.pth (torch, 409208 bytes, 4 tensors)

fc1.weight f4 [128, 784]
000000 bc 0f 01 3c 2c 40 cc bc b8 21 fa 3c e6 4e c1 bc
       0.0078772865 -0.024932943 0.030533656 -0.023597192
000010 e4 59 ca 39 41 62 03 3d 6c 89 35 3d a4 03 36 3d
       0.00038595416 0.032076124 0.04432051 0.044437066
000020 30 68 30 3d 02 f9 9f bc 00 25 c9 bc c6 55 90 3c
       0.04306811 -0.019527916 -0.024553776 0.017619025
000030 a4 cb 9d 3c b4 47 e6 3c c2 3b 09 3d 24 0c 91 39
       0.019262142 0.028110363 0.033504255 0.000276656
000040 29 33 cb 3b 96 c2 99 3c e6 10 e3 3c 8b f7 00 3d
       0.006201167 0.018769544 0.027718019 0.031486075
000050 34 f3 41 3b ce 9a a9 bc 94 16 23 3d 0a ef ce 3c
       0.0029594423 -0.0207037 0.039816454 0.025260467
000060 9f 70 5b 3c b6 e9 e5 3b 74 b4 3a 3d 16 e9 b1 bb
       0.01339355 0.007016386 0.04558225 -0.0054293973
000070 4f ec 6c 3c 14 41 3c 3b a0 e1 3f bb 22 06 02 3d
       0.014460637 0.0028725313 -0.002927877 0.03174413
000080 b0 49 8e 3c 64 66 87 bc 59 aa e9 bb 42 f0 3e bc
       0.017369121 -0.016528316 -0.0071309027 -0.011653962
000090 45 eb 7c bc a6 00 80 bb 26 86 32 3d 93 f9 a8 3c
       -0.015436952 -0.0039063273 0.043584965 0.020626819
0000a0 76 2f 04 3c 37 f8 5c bc aa 02 ed 3c 3a d2 1e 3d
       0.008067956 -0.013486913 0.028931934 0.038774706
0000b0 a4 b8 ec 3b 8f 88 28 bc e2 61 16 3d b9 b6 d9 3a
       0.0072241593 -0.010286464 0.036714442 0.0016610242
0000c0 5c 17 98 bc 22 ef c3 bc 77 4a 54 3c 94 02 08 3d
       -0.018565826 -0.023917738 0.012957207 0.033205584
0000d0 61 37 4d ba bf a9 58 3c 1b 36 2c bb 59 10 f5 bb
       -0.00078283815 0.013224064 -0.0026277367 -0.0074787554
0000e0 28 e9 0b 3d ea e0 f0 3c 38 04 0a 3d f6 c4 a0 3c
       0.034157902 0.029404122 0.03369543 0.019625168
0000f0 d4 1b 30 3d a6 95 16 3d 72 ae 7a 3c d6 d9 32 3d
       0.04299529 0.03676381 0.01530038 0.043664776
000100 28 16 83 bb eb 0f 08 bb a9 06 27 3c 20 11 f3 3b
       -0.004000444 -0.002076144 0.010194459 0.007417813
000110 61 7c e6 ba fc 5d d8 bb 46 8f 9d 3c a0 46 f2 3c
       -0.0017584675 -0.0066030007 0.019233357 0.029574692
000120 7a cd b7 bc 3d 13 02 3d 63 04 6e 3c fa b3 b1 bc
       -0.022436846 0.03175663 0.014527413 -0.021692265
000130 91 31 b2 3c 3d dd 5e bc 1e f9 c4 bc 3d 47 03 3d
       0.02175215 -0.013602552 -0.02404457 0.03205036
000140 31 a4 87 3c 7a 92 17 3d fc 51 06 bb 20 e2 c7 bc
       0.016557785 0.037004925 -0.0020495644 -0.024399817
000150 40 20 b6 3c d3 5c 1a bb 3e 67 20 3d c7 12 7f bc
       0.022232175 -0.0023553863 0.03916096 -0.015568442
000160 38 43 10 3d c6 7b e9 3b dc 55 82 bc 80 ce 08 3d
       0.035220355 0.0071253506 -0.015910082 0.03340006
000170 7f 76 9d bb cf d4 ae bc 68 55 de 3c 95 03 68 bc
       -0.0048053856 -0.02134171 0.027140334 -0.01416101
000180 34 87 68 bc 22 10 24 3c c9 ec 9b bc e0 14 65 3a
       -0.014192391 0.010013612 -0.019033806 0.00087387674
000190 66 b0 07 bd e6 3d c8 3c 6a 38 42 3c 52 4b 1a 3c
       -0.03312721 0.024443578 0.0118542705 0.009417372
0001a0 0c fc 76 bc 3c 2e e0 39 cb 17 ab bc ea 63 b6 3c
       -0.015074741 0.00042759057 -0.020885369 0.02226444
0001b0 cf f4 18 ba 6e fb df 3b d4 3b 36 3d 29 ca ba 3b
       -0.0005834819 0.0068353927 0.04449065 0.005700369
0001c0 7a 61 ea 3c 60 fe 3d 3c 7d c6 07 3c 1a 80 2c 3d
       0.028610934 0.011596292 0.008287069 0.042114355
0001d0 fa dc 8a 3c 9a f1 9d bc b1 07 a7 3b f2 84 5f 3c
       0.016951073 -0.019280244 0.0050973524 0.0136425365
0001e0 be 59 2f 3d bd 67 87 bc 6c 79 02 bc 87 35 9b bc
       0.042810194 -0.016528958 -0.00796352 -0.018946422
0001f0 1f 41 ee 3a 5a cf 81 bc a0 8c ac 3c 53 ff 0b 3d
       0.0018177367 -0.015845943 0.021063149 0.034179043
000200 ce 05 bd bc 73 c4 8c 3c 4d 46 d8 bb 9d f4 33 3d
       -0.023074057 0.017183518 -0.0066001774 0.043934453
000210 62 73 a9 3c b7 34 f6 3c 29 c1 40 3d 44 d1 68 bb
       0.020684902 0.030054433 0.047059212 -0.0035525123
000220 e2 4c 12 3d a2 4e 20 3d 69 06 00 3a 7c aa 0d 3d
       0.035717852 0.03913749 0.00048837677 0.034586415
000230 64 a3 fc 3b 88 57 f6 3c 05 54 00 3d 52 21 c1 3c
       0.0077099074 0.030071035 0.031330127 0.023575459
000240 3e 5b 3c 3d 9e 8c 87 bc b7 27 4e 3c 07 ab a9 bc
       0.045985453 -0.016546544 0.012582711 -0.020711435
000250 ef d7 81 bc 5f 09 a6 3c 78 59 71 bc 93 2a d8 bc
       -0.015850035 0.02026814 -0.014730804 -0.026387488
000260 fc 90 b1 bc 84 3c df 3c 32 2e 00 3d b1 a4 5b bc
       -0.02167558 0.027250536 0.031294055 -0.013405965
000270 4e 48 c2 3c 71 24 0c bd f9 1b 73 bc cd 83 b9 bc
       0.023716118 -0.03421444 -0.014838212 -0.022645855
000280 dc df 8c 3c a6 74 1a 3d a9 95 a4 bc a6 5c 12 3d
       0.017196588 0.0377089 -0.020090895 0.035732888
000290 ca d8 6c 3c 2e 18 21 bc 84 28 f6 3b f4 80 b1 bc
       0.014455983 -0.009832425 0.007512154 -0.021667935
0002a0 3e 5b 9e bc 86 22 67 3c 4f 7d 26 bc 90 6b c2 bb
       -0.019330617 0.014107352 -0.010161712 -0.0059332326
0002b0 62 38 c8 3c dc e5 00 3d a6 d4 92 3b 1d 80 13 3d
       0.024440948 0.03146921 0.004480916 0.03601085
0002c0 a1 00 38 bc be 29 62 3b 54 04 ea bc f3 fe 17 bd
       -0.011230619 0.0034509744 -0.028566517 -0.037108373
0002d0 8c dc 29 bd d2 e0 5a bb fd 2d cf bb fd 58 bb bc
       -0.041470096 -0.0033398164 -0.006322621 -0.022869581
0002e0 55 30 08 bd 32 87 04 3d 39 e9 e5 bc 7b c4 0d 3d
       -0.033249218 0.032355495 -0.02806531 0.034611207
0002f0 a6 57 d3 3c 4b cc 2f 3c c3 6b 21 3d 23 61 39 3d
       0.02579863 0.01072986 0.03940941 0.045258652
000300 94 62 18 bc 78 0b d6 3c 0b 78 02 3c 2b fd 6e 3c
       -0.009300847 0.026128516 0.007963191 0.014586727
000310 15 87 bc 3b 74 56 3b 3d be c8 65 3c 96 03 b4 bc
       0.0057534077 0.045736745 0.014024911 -0.021974366
000320 04 50 db bb 1c d1 1d 3c 10 f3 f1 3b ce f5 ed 3c
       -0.006692888 0.009632375 0.0073837116 0.029047873
000330 6c a4 0f bb f0 64 0d 3b 27 da 85 bc 23 6d ba 3c
       -0.0021918071 0.0021575056 -0.016339375 0.022757119
000340 10 a6 fe 3c 7f fa a9 3c 36 47 8d bb bd 1e 98 bc
       0.031085044 0.020749329 -0.0043114675 -0.018569345
000350 45 21 bc bc a5 fc ff bc 7e bb 7f 3c bf d6 fa 3c
       -0.022965083 -0.0312484 0.015608666 0.030619977
000360 a9 4d c5 bb fd 02 0d bd c8 31 ca 3b ea 62 62 bc
       -0.0060212207 -0.034426678 0.006170485 -0.013817528
000370 21 1e fe 3a f2 8f 90 bc e6 f4 e3 3c e4 d0 0c 3a
       0.0019387641 -0.017646763 0.027826738 0.00053717033
000380 1d ce 22 3c 99 9f 02 3d 66 86 0c 3c 5a 51 08 bc
       0.009936837 0.031890485 0.008576965 -0.008320177
000390 e1 7e 9f 3a 30 ec fc bc 16 2c 2d bd 31 8c bf 3c
       0.001216855 -0.030874342 -0.04227837 0.023382278
0003a0 c0 10 17 bd a3 2e e6 3c 63 a6 26 3c 4d 17 2b bc
       -0.03688121 0.02809841 0.010171506 -0.010442567
0003b0 67 b5 40 bd 5a bd 69 bc 01 34 b2 3c 56 4b a1 bc
       -0.047048 -0.014266336 0.021753313 -0.019689243
0003c0 e2 26 2d bc 10 4a 67 3c a5 9c 75 3b d9 c4 36 bc
       -0.010568352 0.014116779 0.00374774 -0.011155331
0003d0 6b 24 e8 bc 78 ba b3 3c f4 b6 e5 bc d9 a6 1a 3d
       -0.028337678 0.021939501 -0.02804134 0.037756775
0003e0 58 ad 0c 3d 30 e6 c2 bc e3 db 42 3c e0 2d 70 bc
       0.034345 -0.023791403 0.011893245 -0.014659375
0003f0 1c 32 c0 3c c4 2d 08 3d ee 27 c2 bc 23 cb 30 bc
       0.023461394 0.03324677 -0.02370068 -0.010790619

fc1.bias f4 [128]
000000 58 ef 01 bb b4 dd 97 3c b5 0b 27 bd 85 1e 02 bc
       -0.0019826498 0.018538333 -0.04078265 -0.007941847
000010 bd 97 07 bd 98 99 a8 bb 07 a9 b5 3b ec ef 8f bc
       -0.033103693 -0.005145263 0.0055438313 -0.017570458
000020 92 2d e2 bc 9d 75 05 bd 9d 3a 53 3c cc db 37 3d
       -0.02760962 -0.032582868 0.012892392 0.04488735
000030 11 84 0a bc 8c 45 1a bd 8b 11 9d bc 2d 2c 56 bc
       -0.008454339 -0.03766398 -0.019173404 -0.013072056
000040 ad fd 10 bb f4 40 0e bd 62 95 55 3b b3 b9 6f 3a
       -0.0022123859 -0.034729913 0.003259026 0.0009144798
000050 f1 4f ad bc d2 b8 16 bd db fa 17 bd e5 22 36 bd
       -0.021156283 -0.036797352 -0.03710447 -0.04446687
000060 17 b2 37 bc ab 01 08 3c 9f c0 c7 3b 39 6b 6e 3b
       -0.0112118935 0.008301179 0.0060959603 0.0036379828
000070 90 e1 ef bc 31 0a 99 3c 7a df 5c bc 00 4b 1b bb
       -0.029282361 0.018681617 -0.013481015 -0.0023695827
000080 82 ec 65 3c 09 77 35 ba b3 ed 50 bc 6d 98 96 3c
       0.014033439 -0.00069223397 -0.012751984 0.01838323
000090 b8 8f 8d 3c 25 77 7a bc ad d5 2c bd 05 0b 3f bb
       0.017280445 -0.015287195 -0.042195965 -0.0029150855
0000a0 56 1d 0f bd a7 6e 7a 3d cb f1 27 3d 96 81 07 bd
       -0.034940086 0.061140683 0.041002076 -0.033082567
0000b0 5c 55 e1 bc 89 99 33 bd ea a8 69 3c 5a 8d c4 bc
       -0.027506523 -0.043847594 0.014261464 -0.023993183
0000c0 03 fa b4 bc 8d 12 dd bc 9b fa 89 bb 9a 57 f6 bc
       -0.022091871 -0.026986385 -0.0042107827 -0.030071069
0000d0 82 ed 97 bc d0 45 2b bd c3 5e 4a 3d 3e 2f ab bc
       -0.01854587 -0.041814625 0.049406778 -0.02089655
0000e0 96 7c 82 bc 27 7e 5c bc d2 cb 4f bd 1c 50 8c 3d
       -0.015928548 -0.013457811 -0.050731488 0.06851217
0000f0 23 6c 1a bd d6 46 05 bd 3c ae ca 3c 57 d6 ed bc
       -0.037700783 -0.032538258 0.024741285 -0.02903287
000100 c6 b4 46 bc 16 16 11 bb b5 30 a2 bd 77 f6 fe bc
       -0.012128061 -0.0022138408 -0.079194464 -0.031123383
000110 52 83 67 bb 27 66 c9 3c 4f 88 74 bc bd 96 2c bd
       -0.0035326076 0.024584843 -0.014925077 -0.042135943
000120 fe aa fd bb 05 a9 2c bc f2 32 4f bc 41 94 73 bd
       -0.007741331 -0.010538344 -0.012646424 -0.059467558
000130 86 2c 10 3c 32 21 dc bc 8c 25 2b bd f0 57 83 bc
       0.008799678 -0.026871298 -0.041783854 -0.016033143
000140 64 75 6b 3c 10 5f d5 bb 48 86 e3 bc dc 70 d1 bb
       0.01437125 -0.0065115765 -0.027773991 -0.0063916277
000150 12 83 3b bb 72 b1 8c 3c 3a 0a eb 3c 55 68 6e bc
       -0.002861206 0.017174456 0.0286914 -0.014551242
000160 36 a7 c4 bc 7f 05 19 bd bd 95 4b bb d7 dd 84 bc
       -0.024005514 -0.037358757 -0.0031064593 -0.016219063
000170 a7 d3 a8 3b b7 aa ec bb ea 0a be bc 90 a6 5f 3c
       0.005152184 -0.007222499 -0.023198564 0.013650551
000180 29 3d 85 3c c5 74 88 3c c3 32 3f bc df 42 09 3c
       0.016264515 0.016657243 -0.011669817 0.00837776
000190 ee dc 83 3c 04 71 28 3c 16 b0 4d bc 0b 10 87 3b
       0.016096558 0.010280851 -0.012554189 0.0041217855
0001a0 a1 e8 a2 3c 59 33 f6 bb 10 57 5a bd dc 82 a3 3c
       0.019886317 -0.0075134453 -0.053305686 0.01995986
0001b0 8c 1c b2 3c 53 01 8f bd f9 f2 91 3b 39 01 4b bd
       0.021742128 -0.069826744 0.0044540134 -0.049561713
0001c0 46 f8 18 bd df 39 05 bd 17 88 c4 3c 7a d8 6d bb
       -0.037346147 -0.032525893 0.023990674 -0.003629236
0001d0 5a 94 9f bb cf a0 b2 bc 4b 5f fb bb a9 b4 c6 bc
       -0.00486998 -0.021805195 -0.007671272 -0.024256067
0001e0 99 d0 25 3c 48 f8 21 bd 09 9b c0 3b f8 86 69 3c
       0.010120534 -0.03954342 0.0058778566 0.01425337
0001f0 79 05 b3 bc 05 56 1a bd f3 a8 dc 3b be 54 88 3c
       -0.021853196 -0.03767969 0.0067340075 0.01664197

fc2.weight f4 [10, 128]
000000 13 7d 80 3c d1 10 11 3c 09 6e 3c bd 9e b4 58 bc
       0.01568464 0.008854107 -0.046003375 -0.013226656
000010 74 84 4a 3d 92 c0 05 3d 03 e4 3e bc 29 59 9e bd
       0.049442723 0.032654352 -0.011651042 -0.0773185
000020 0f 88 12 3e 55 3b b3 be b6 9f 2e be ca 2d cb 3d
       0.14309715 -0.35006204 -0.17053112 0.09920843
000030 f7 a2 2a bd 5c a6 c0 3a 17 e4 62 be 06 d6 65 be
       -0.04165932 0.0014698016 -0.22157322 -0.22444925
000040 c6 de 24 3d 46 84 62 be 93 56 04 3e 5e a4 cc 3c
       0.040251516 -0.22120771 0.1292365 0.02498072
000050 52 fe 89 bd 3f 38 29 be b8 27 21 be 3d 51 f4 3d
       -0.06737961 -0.16525362 -0.15737808 0.119295575
000060 36 81 f4 bd 50 82 cd 3d b4 6e 44 3d 7b df c5 bd
       -0.119387075 0.10034621 0.047957137 -0.09661766
000070 ab da 24 3c f7 27 98 3d 7c d5 00 be 0e 72 28 bb
       0.0100619 0.07429498 -0.12581438 -0.0025702748
000080 7a da 50 be 9b 75 93 bd 72 e3 75 bd 50 03 7c 3d
       -0.20395842 -0.07200166 -0.060031362 0.061526597
000090 86 26 4b 3e 2c 49 d0 bc d3 bf 06 3e bc a7 4e be
       0.19838914 -0.025425516 0.13159113 -0.20181173
0000a0 9c d6 0f 3d 0f c9 33 be 44 be a6 3d f2 32 5b 3d
       0.035116777 -0.17557167 0.08141759 0.053515382
0000b0 62 07 98 bd 10 65 3c 3d 54 f5 a0 3d f0 6d d8 3d
       -0.07423283 0.04599482 0.078592926 0.10567844
0000c0 c0 4c 96 bd 05 3e 16 bd 08 d0 c5 bd ea ae 22 3e
       -0.07338858 -0.03668024 -0.096588194 0.15887037
0000d0 c0 87 44 be b2 15 e8 3d a0 c7 fd bd 44 d2 cb bc
       -0.1919241 0.11332263 -0.12391591 -0.024880536
0000e0 dc 5d aa bd f6 57 ac be da 40 8f 3d 05 1e 4a be
       -0.083186835 -0.3366086 0.06994791 -0.19738014
0000f0 55 be 05 3d 31 15 bd bc 82 ec 4c 3e 17 eb 18 3d
       0.032652218 -0.023081394 0.20012096 0.037333574
000100 af fa a4 3d 99 63 06 3d 0d c8 cb bd f4 9f 8e be
       0.080556266 0.032809827 -0.09950266 -0.2785641
000110 ab 6d 89 be cc 4b d4 3d 6a 5d e7 bc 05 ed 1d 3d
       -0.26841483 0.103660196 -0.028242785 0.038556118
000120 e1 63 0e 3d 14 f4 4b be 49 b5 8a 3d cf dc ff 3d
       0.03476322 -0.19917327 0.06772859 0.12493288
000130 f6 17 22 3b 7c bf d1 3d d4 38 2e 3d db 0e ab bc
       0.002473352 0.10241601 0.042534664 -0.020881107
000140 09 db b3 be a6 f2 04 3d f0 23 b7 3d a3 88 e6 bd
       -0.35128048 0.03245797 0.089424014 -0.1125653
000150 6e 2e 73 be eb a7 e8 bd 66 fd 1a be 84 5c 1f 3e
       -0.2374818 -0.11360153 -0.15135726 0.15562636
000160 aa 0e 0d 3e b5 92 b4 bd 52 15 3b bc 04 79 3e be
       0.13775125 -0.08817045 -0.011418657 -0.18600851
000170 2d 29 23 bd 66 3a 11 bb 5c e3 7e bd 88 ef 0b be
       -0.03983419 -0.0022160052 -0.062228546 -0.13665593
000180 32 a6 85 be 8b e6 33 bd c6 62 2e 3d 2b 24 1b be
       -0.2610336 -0.043921035 0.042574666 -0.15150516
000190 37 e0 c4 bd 7d e9 bd be e6 85 b8 be 35 51 17 bc
       -0.09613078 -0.370922 -0.36039656 -0.00923567
0001a0 04 29 02 3e 31 63 3f 3d 03 9c 7f 3e e9 69 07 3e
       0.12710959 0.046725456 0.24961857 0.13223995
0001b0 02 da 86 3d 02 59 33 3d f7 57 b4 3d bd 00 f4 3b
       0.065845504 0.043786056 0.088058405 0.007446377
0001c0 d7 8d 91 bc cf 9b 8e 3d 43 ec df bd 05 12 8a 3d
       -0.01776783 0.06963312 -0.10933735 0.06741718
0001d0 0c 02 ff 3d ab 3c 14 3d 1d 36 c2 be a9 c7 e3 bb
       0.12451562 0.03619067 -0.3793191 -0.0069512916
0001e0 03 f2 d1 3d ed a5 3e 3c d9 99 0e be ee 4f 27 3e
       0.10251238 0.0116362395 -0.13925876 0.16339085
0001f0 a0 7a a6 3c 2e b5 93 be d3 80 b0 3d c6 fe d8 3d
       0.020322144 -0.28849167 0.08618321 0.10595469
000200 b8 29 53 3d c0 b8 94 3d 5d 63 ce 3d 2e ba 9b 3d
       0.051553458 0.07261801 0.10077546 0.0760387
000210 a5 f8 82 bd 31 40 6f 3d 6d c0 0c 3e a7 a2 61 bd
       -0.063950814 0.058410827 0.1374528 -0.055086758
000220 a5 5c 99 be b0 3d 9b bd 0c 04 19 3e 08 e0 87 3e
       -0.29953495 -0.07580125 0.1494295 0.2653811
000230 0f 0a ac 3d 99 25 ba be 10 c7 99 3d 5b 23 b9 be
       0.08400356 -0.3635681 0.07508671 -0.36159787
000240 a1 3c c8 3d c9 64 68 3d 98 ea 79 bd 75 4b e1 bc
       0.09777189 0.05673674 -0.06101474 -0.027501801
000250 d0 b4 33 bb 00 b4 e3 bc 63 03 97 3c 42 47 8a 3d
       -0.0027421005 -0.027795792 0.018434232 0.067518726
000260 7c 28 39 3e 24 63 92 be ad e0 c3 bd a6 b0 04 be
       0.1808185 -0.28591263 -0.09564338 -0.12958011
000270 e7 06 32 be a6 d3 17 bd 83 7d 96 bd 39 22 6f be
       -0.17385446 -0.037067078 -0.07348158 -0.23352899
000280 55 3f 1d 3d 85 5c a0 3d fb c0 dc bd 99 a4 cc bd
       0.038390476 0.07830147 -0.107789956 -0.09992332
000290 c7 8c 2d be 7c 76 94 bc 8c ec d9 bd 54 53 4a 3d
       -0.16948234 -0.018122904 -0.10640821 0.049395874
0002a0 24 5d 56 3d 9f 91 31 bd a3 fd c1 3c 16 08 f6 3d
       0.05233492 -0.043351766 0.023680514 0.12013261
0002b0 c5 f0 a6 bc fc 19 56 3b f4 a5 76 bd 18 56 3a be
       -0.02037848 0.0032669296 -0.06021686 -0.18196905
0002c0 57 b0 eb bb d4 7f 68 bd 17 06 37 3d 98 79 9a 3e
       -0.007192652 -0.05676253 0.044683542 0.30170894
0002d0 b6 82 78 be 19 73 5c 3d 07 85 d2 3c e3 51 9d bb
       -0.24268612 0.053820703 0.025698198 -0.0048010214
0002e0 ec 8a 85 bd 4a 19 ba 3c 8f 66 88 3e 28 bb 37 3d
       -0.06520638 0.022717137 0.26640746 0.04485622
0002f0 60 c8 91 3d cb 6d 97 3e bd 20 a8 bc 73 9a ce bd
       0.071182966 0.29575953 -0.020523423 -0.100880526
000300 bf a3 a3 3e 51 7d b3 3d 56 87 55 3d 94 85 3b 3e
       0.31960866 0.087641366 0.05213102 0.18312675
000310 b0 bb af bd dc 45 85 be a0 7e 06 be d0 0f c1 bd
       -0.085807204 -0.2602986 -0.13134241 -0.09426844
000320 64 64 23 bd fc 0c 07 3e f1 c6 04 be f3 e9 3c bd
       -0.03989066 0.13188547 -0.12966515 -0.04612155
000330 b8 28 80 be d3 70 a7 bd 6b 82 cc bd 1f 5e 3c 3b
       -0.25031066 -0.081758164 -0.09985813 0.0028742624
000340 61 d9 90 3d 10 79 09 3d c9 57 a8 3c c5 3c 66 be
       0.07072712 0.03356272 0.020549672 -0.22484119
000350 ac 0e 31 3e 86 bf de bc ed ff 80 3d fc e7 e0 bd
       0.17290753 -0.027190935 0.06298814 -0.109817475
000360 04 43 ca bd 31 40 50 bd a6 4e 5e 3d a9 5d d1 3c
       -0.098760635 -0.050842468 0.054274224 0.025557356
000370 b6 96 cf 3c d0 f1 14 be 2d 87 86 3c fa 6b 01 3d
       0.02534042 -0.14545369 0.016421879 0.031597115
000380 91 f3 53 3c 46 49 6e bd 9f fd 02 bd 4f e0 20 be
       0.012936489 -0.058175348 -0.031980153 -0.15710567
000390 fa 91 7a 3e 3d 24 d9 3d 20 ee 35 be f2 33 99 3d
       0.24469748 0.10602615 -0.17766619 0.07480611
0003a0 04 12 34 3d ad 37 80 3d 69 76 97 be 1e bd e1 bd
       0.043962494 0.06260619 -0.29582527 -0.11022399
0003b0 41 4c e5 bd 70 21 80 3d e8 0a a7 3c 26 ec af 3d
       -0.11196185 0.06256378 0.020390943 0.085899636
0003c0 fa c2 a1 3d 7b 4a 5f 3d 21 d0 99 3d 81 a3 0f bc
       0.07898517 0.05451439 0.075104006 -0.00876701
0003d0 31 08 1a bd c8 13 5b 3d ff 3a 1d 3c 50 bc 62 3e
       -0.03760547 0.05348566 0.009596585 0.22142148
0003e0 1a 94 68 3d bf ab 7e be 4e 1b 7a bd 5a 63 a3 be
       0.056781866 -0.24870203 -0.061061196 -0.31911737
0003f0 fb bf a8 bd c0 d0 94 bb 18 31 26 be 61 69 6a be
       -0.08239742 -0.0045414865 -0.16229665 -0.22891761

fc2.bias f4 [10]
000000 54 7a 04 bd 9a 0e e2 3a 35 57 53 bd 51 5a 5a 3a
       -0.032343224 0.0017246783 -0.05159684 0.0008329498
000010 2d 5d 30 3d 9f 58 29 bd 8a 4a b3 bd b6 88 34 bd
       0.04305761 -0.04134428 -0.087544516 -0.04407569
000020 65 2c a8 3d 51 01 a9 3d
       0.082115926 0.08252204
