models/standard_mlp.pth (torch, 409615 bytes, 4 tensors)

fc1.weight f4 [128, 784]
000000 59 85 02 bd 73 5f f1 bc 66 ab 59 3b 80 e2 dc ba
       -0.03186545 -0.029464459 0.0033213734 -0.001685217
000010 53 48 bc bc 9c 10 b3 bb ce cf ca 3b 8d 84 04 bc
       -0.022983706 -0.0054646265 0.006189323 -0.008088243
000020 25 b9 d8 3c 74 4b 3e 3b cf 99 3c bc eb 85 f7 3c
       0.026455471 0.0029036673 -0.01151128 0.030215224
000030 6d fd a2 3c d6 1a 50 3c 8b 5f 9c bc d5 5b fb 3c
       0.019896233 0.012701711 -0.019088527 0.030683437
000040 5f 57 de 3c 03 98 65 3c 1c de 1c 3b 34 8e 45 bc
       0.027141271 0.014013293 0.0023936098 -0.01205783
000050 5b ba c8 3c 2b 0a a3 bc d3 1c e0 3c 19 57 81 bc
       0.024502924 -0.01990231 0.027357494 -0.015788602
000060 f0 62 b9 3b e1 1a b0 bc f1 57 1a 3c cb 7f 12 bd
       0.005657546 -0.021497192 0.009420381 -0.035766404
000070 47 80 74 3c 8f 68 a2 3c ff 3c c1 bc a3 8c fc 3c
       0.014923162 0.019825248 -0.023588656 0.03082878
000080 db 5c ed bc 63 2c 3e ba 85 4d 1b 3c b0 12 ec bc
       -0.028974941 -0.0007254539 0.009478931 -0.028817505
000090 6c 52 e6 bb 92 b3 1a bb 8b d4 14 bd cd 81 e0 3c
       -0.0070288684 -0.0023605567 -0.03633551 0.027405644
0000a0 a3 83 80 bc 8b 68 4f bc 7c b6 c5 3c d8 08 13 3b
       -0.01568777 -0.012659202 0.024134867 0.0022435691
0000b0 30 51 ba bc 00 84 b0 3b 87 fe e7 3c c2 24 81 ba
       -0.022743791 0.0053868294 0.02831961 -0.0009852874
0000c0 5f 3d 92 3c 03 fc 36 3c 7a 93 cf bc 55 33 0b bc
       0.01785153 0.011168483 -0.025338877 -0.008496125
0000d0 2e 1d b2 ba c0 5f 05 3d 0b 9e 0d 3c 77 87 ca bb
       -0.0013589018 0.032562017 0.008643637 -0.0061806994
0000e0 c8 52 5e 3a 4b 1f 85 3c d3 78 0b bc 10 72 7e bb
       0.00084809633 0.016250273 -0.008512693 -0.003882531
0000f0 69 31 bc bc 7a a6 04 3d c5 8c b8 bc b3 20 92 bc
       -0.02297278 0.032385327 -0.022528062 -0.017837858
000100 fb 93 b6 3b d9 1e 8d 3d ec eb 49 3d 18 c2 a9 ba
       0.00557184 0.06890649 0.04929726 -0.0012951521
000110 6a 69 ba 3c 94 e8 1a 3d 71 ae 08 bc 81 04 c1 3c
       0.022755343 0.03781946 -0.008342371 0.023561718
000120 36 d5 e0 3d f6 31 04 3e f5 7f 21 3d 6b 35 a6 bd
       0.10978167 0.12909684 0.03942867 -0.081156574
000130 62 99 9d 39 b2 dd 09 bb ed 11 e3 3c 16 40 a1 3c
       0.00030059653 -0.0021036682 0.027718509 0.019683879
000140 1f cc e9 bc 23 f1 76 bb f3 c7 b8 bc bf 93 f2 bc
       -0.028539715 -0.003768035 -0.02255628 -0.029611466
000150 c4 a2 a8 bb 98 77 b0 3b 67 a9 f2 bb ed 05 a7 bc
       -0.0051463563 0.0053853504 -0.0074054482 -0.020388568
000160 b8 60 44 3c 6e 92 01 3d e4 5c 74 3d ce 73 dc 3d
       0.01198595 0.031633787 0.0596589 0.107642755
000170 a6 b5 91 3d 16 38 2d 3d f8 90 c3 3c b0 4b 33 3e
       0.07114725 0.042289816 0.023872837 0.17509341
000180 fb 7f 14 3e 17 a2 d9 bd 47 d6 18 be f2 fa f7 bb
       0.14501946 -0.10626619 -0.1492549 -0.007567757
000190 e7 84 15 bc ca 18 05 bd 28 f6 03 3e 99 d0 e5 3c
       -0.009125925 -0.032494344 0.1288687 0.028053569
0001a0 f3 27 46 be 5a 0b 33 bc 45 ac b6 3b f1 0b 53 bc
       -0.19351177 -0.010927999 0.0055747353 -0.012881265
0001b0 56 11 0f 3a b6 ed a5 3c 94 e7 6b bc 53 f5 14 bd
       0.00054576003 0.020254951 -0.014398474 -0.036366772
0001c0 85 11 90 bc 17 f4 dc 3c 4f 9f ac bc ae 32 a1 bc
       -0.017586479 0.02697186 -0.021072058 -0.019677486
0001d0 17 cc 05 bd d3 b1 0f 3e de 22 65 3e 6d 51 28 3e
       -0.03266534 0.14032678 0.22376582 0.16437311
0001e0 d7 8f 8c 3d f9 32 9e bc 7d 77 b5 3c c8 a3 fd 3d
       0.06863373 -0.019311415 0.022151703 0.123847544
0001f0 15 da 3b 3e 5c 41 14 bd 12 14 21 be a7 93 5d be
       0.1834491 -0.036195144 -0.15730312 -0.21638356
000200 8e f7 15 be 67 8b 93 bd 65 65 b3 3d 71 5a 18 3d
       -0.14645216 -0.07204323 0.08759574 0.037195627
000210 10 a5 03 be b5 50 0a bd c8 56 4a 3c 98 07 f9 bd
       -0.12855935 -0.033768374 0.012349792 -0.121596515
000220 fb 8b 87 bd 77 82 3d bc 63 17 ab bc 35 b5 16 3d
       -0.06618496 -0.01156675 -0.020885175 0.036793906
000230 0d 4c 09 3d 97 d8 6c 3c fb 15 10 3c f8 13 9a 3b
       0.033519793 0.014455936 0.008794303 0.0047020875
000240 6d 99 f5 3d 84 1c ea bc aa ad 90 3d a4 3f ba 3d
       0.11992154 -0.02857805 0.07064374 0.0909417
000250 3c 89 ad bd 28 17 dc bd e4 80 38 bb 92 a3 6b 3d
       -0.08473441 -0.10746604 -0.0028152997 0.05752904
000260 ca 7d a9 3d d6 ad 83 be af 14 9e be 4b 4b 6e be
       0.082759455 -0.25718564 -0.30875155 -0.2327091
000270 02 ff 09 be 90 18 24 be 87 18 e3 3d 00 92 35 3e
       -0.13476184 -0.16024995 0.110886626 0.17731476
000280 af 4b ed bc 25 cd 46 3d dd 46 53 3d cf 8f a2 3d
       -0.028966753 0.048535485 0.051581252 0.079375856
000290 ec ab 82 bd 82 5e 62 3d f5 70 d7 3c 20 70 34 bb
       -0.06380448 0.05526591 0.02629898 -0.0027532652
0002a0 28 6c 50 bc 43 98 28 bc 7e a7 0c bd 2b b2 0f 3c
       -0.012721099 -0.010290208 -0.03433942 0.008770506
0002b0 da a9 fa 3c 8d 56 68 bc da da 39 3e 20 55 d6 3d
       0.03059857 -0.014180792 0.18149891 0.10465455
0002c0 c0 bf 71 bd 03 3c aa bb 3f ec c8 bd 95 a6 ab bd
       -0.059020758 -0.0051951422 -0.09810685 -0.083813824
0002d0 22 d3 40 bd 62 9d f1 bd 5d cc 31 bd 18 20 bb 3d
       -0.047076352 -0.117975965 -0.043407787 0.09136981
0002e0 05 8e 8f bd 76 40 33 be 8d 91 c2 3d 8f d0 56 3e
       -0.0700951 -0.17505059 0.09500418 0.20977996
0002f0 33 d8 28 bd 0e 52 ea bd 6e bc ce bc da ff b6 3c
       -0.04122181 -0.11441432 -0.025236335 0.022338796
000300 e3 8a d6 bd ed 00 14 bc fb e1 7a 3c 9e b5 fb bc
       -0.10475709 -0.009033424 0.015312667 -0.03072625
000310 b2 98 8e ba f6 5c 03 bd 1f 36 e8 bc 37 1d 94 3d
       -0.0010879247 -0.032071076 -0.02834612 0.07232135
000320 86 69 6c 3e 6d bd bc 3e 0c 3c 46 3e d1 33 80 bc
       0.23087129 0.3686327 0.19358844 -0.015649708
000330 f4 4b aa bb a9 9f 87 be 12 3b 3c be 5d eb 17 3d
       -0.0051970426 -0.26489 -0.18381909 0.037089694
000340 82 b9 c1 3c 20 65 72 3d cc 44 e0 3c 6a 4c a0 bd
       0.023648027 0.05917847 0.027376555 -0.07827075
000350 be dc 25 be be 09 60 be e6 7a 64 3b 01 75 1a 3e
       -0.16197488 -0.21878716 0.0034863292 0.15083696
000360 46 8c 6a 3d 8b 08 85 bd ae de 98 bd ac 90 11 be
       0.05726268 -0.0649577 -0.07464348 -0.14215344
000370 cf aa cd bd dc 1b ad bb a3 dc 57 ba 51 08 c8 3c
       -0.10042345 -0.005282862 -0.00082344766 0.024418028
000380 09 db c0 3c 54 1b 98 3b 82 f4 48 3b bc b6 d1 3d
       0.023541944 0.0046419296 0.0030663316 0.10239932
000390 cb fe 6b 3e da 14 9a 3e 8c f5 6f 3d a6 02 20 bd
       0.23046415 0.30094033 0.05858378 -0.039065026
0003a0 6f 8d 94 be c9 d1 25 be 68 7b 10 3c cd a2 d9 bc
       -0.29014155 -0.16193308 0.008818485 -0.026566887
0003b0 dd eb 5e bd 24 52 ba bc ce 7b 3f 3d 1c e9 01 be
       -0.054424156 -0.022744246 0.04674893 -0.1268658
0003c0 73 37 a1 be 74 a2 a8 bd 45 1e b8 3d 94 b3 14 3e
       -0.31487617 -0.082341105 0.089901485 0.14521629
0003d0 8d a0 be 3d 07 be 39 3d fa ae cf bd 11 a9 23 be
       0.093079664 0.04534724 -0.10140796 -0.15982462
0003e0 5f 5c 4d be ea 3b 12 bd c3 dc df 3c b3 b3 60 3c
       -0.20054768 -0.03570167 0.027326947 0.013714719
0003f0 25 2e ab 3c 0a 82 dc bb 51 17 5a 3d a3 c9 17 3e
       0.020896027 -0.006729369 0.053244893 0.14823012

fc1.bias f4 [128]
000000 f4 dd 75 3c 3e f4 f8 bb 99 16 31 bc 05 81 41 bd
       0.015006531 -0.0075974753 -0.01080861 -0.047242183
000010 68 f1 cd bb 7a 97 a7 bc 0d b2 96 3b c3 d1 4d bc
       -0.0062848814 -0.020457972 0.004598862 -0.012562218
000020 5d f1 d2 3c 59 22 d3 bb 74 03 a8 3a 37 23 0e bd
       0.025749857 -0.0064433035 0.0012818412 -0.034701552
000030 01 32 09 bd 9c 67 0a 3d e1 20 a7 3c a4 30 75 bc
       -0.033494953 0.033790216 0.02040142 -0.01496521
000040 27 50 2d bc ca 9d 00 3d 69 24 80 bd fa ce 8e bd
       -0.010578192 0.03140048 -0.06256945 -0.069730714
000050 6d 4e 57 bd 5b 14 b9 3b cc 52 dc bd 35 77 0e 3d
       -0.052565027 0.0056481785 -0.1075798 0.034781653
000060 99 d1 c1 bc 87 40 ef bc a4 e9 28 bd ef 13 b2 3c
       -0.023659514 -0.029205574 -0.041238442 0.02173802
000070 6b 73 e1 bc 78 56 1b bd dd 88 69 bd e2 6b 8d bb
       -0.027520856 -0.03792426 -0.05701529 -0.004315839
000080 4e 44 25 bd 80 07 a4 bc 1f b1 a6 3c 5b d5 7f bd
       -0.040348344 -0.020023108 0.02034813 -0.06245933
000090 9e 3b bd bc 17 33 cc bc 12 d5 6c bc 87 1d 29 3c
       -0.023099717 -0.024926705 -0.014455097 0.010321981
0000a0 18 e9 7b bd 4c 6a 98 bc 25 a2 36 3d 57 ab ee 3c
       -0.061501592 -0.018605374 0.044588227 0.029134436
0000b0 f5 07 9f b9 40 65 18 3d 67 04 8e 3b c5 07 c0 bc
       -0.00030332772 0.037205935 0.004334021 -0.023441205
0000c0 57 0e a5 bb 33 37 12 3d a2 ad af bc 6c 84 cc ba
       -0.00503711 0.035697173 -0.0214451 -0.001560343
0000d0 01 22 0a bd fb e8 6c 3d a3 0e 24 3c a8 fd 9d ba
       -0.033723835 0.057839375 0.010013255 -0.0012053745
0000e0 f6 ea 97 bc 31 61 61 bd 88 7e 38 bd 65 74 8e bc
       -0.018544655 -0.05502433 -0.045042545 -0.017389486
0000f0 d3 42 9e bd a4 c6 9f bc d6 b3 10 bd c3 95 aa bb
       -0.077275895 -0.019503899 -0.035327755 -0.0052058413
000100 d2 d0 8c 3d ca a1 25 bc d9 70 2f bd ba 55 35 bd
       0.06875767 -0.010109374 -0.04283223 -0.04427121
000110 e7 cf 3e bc b0 ec 2f bd 20 11 96 bb e3 9e af bc
       -0.0116462475 -0.042950332 -0.004579678 -0.021438068
000120 7e f5 24 bd dc 03 22 bd 45 56 d2 bd f8 4b 2d bd
       -0.040273182 -0.03955446 -0.10270361 -0.042308778
000130 34 fd 44 3c dc b7 01 3c 88 b1 4d 3c 83 ca 8f bd
       0.012023259 0.007917371 0.012554534 -0.07021048
000140 d6 07 71 3a 28 b8 c3 37 f2 0e a9 bb 83 0f 81 3c
       0.0009194588 2.3331566e-05 -0.0051592523 0.015754467
000150 4a ed 16 3b 7a 13 a6 bd d5 17 58 bb d5 4e da bc
       0.002302962 -0.081091836 -0.003297319 -0.026648918
000160 19 0e 10 bc cb 45 a2 3c 1b 94 a6 bb 06 d8 d7 3b
       -0.008792424 0.01980867 -0.0050835735 0.0065870313
000170 65 ef 40 bc 09 b4 96 3b ff 15 23 bd 48 a5 0a bd
       -0.011775826 0.0045990986 -0.0398159 -0.03384903
000180 ae ec 51 bd 9f 18 34 bd 73 00 3a 3c e2 d2 16 3d
       -0.051251106 -0.043968793 0.011352646 0.036822207
000190 fc 77 85 3c b6 d2 33 3b d3 32 0f 3c 3c 65 df 3b
       0.016292565 0.0027438826 0.008740145 0.006817488
0001a0 e3 a8 aa bd 28 e8 41 3b 3c 44 4d bb 89 b9 12 3d
       -0.08332994 0.0029587839 -0.0031321188 0.03582147
0001b0 82 4c be bc 83 c8 cd bb a7 14 2d bd 75 d6 5b bd
       -0.023229841 -0.0062800064 -0.042256024 -0.05367132
0001c0 0e ab 37 bd 4a 46 eb bc bd 9a a0 bc 23 10 3e bd
       -0.044840865 -0.02872004 -0.019605035 -0.046402108
0001d0 7f ca 48 bc 8a 69 98 bd bf 36 cb bb a3 a5 3e bc
       -0.01225531 -0.07442005 -0.0062015946 -0.011636171
0001e0 e0 da d1 bc ad b4 22 bd 93 26 14 bd 43 8d 55 bd
       -0.025617063 -0.039723087 -0.0361696 -0.05213667
0001f0 e4 85 cb bb 53 79 30 bd 8e 44 ae ba f5 5c f4 3b
       -0.0062110294 -0.043084454 -0.0013295577 0.0074573704

fc2.weight f4 [10, 128]
000000 0b 70 de be 21 2b 92 be 92 ed 69 be 30 c4 a9 3d
       -0.43444857 -0.2854853 -0.22844532 0.08289373
000010 88 b6 8b be 9e fe 57 be 12 8f d1 3d 6e 1f df 3d
       -0.27287698 -0.21093222 0.102323666 0.108946666
000020 9c da c0 be 4b bc 57 3d 49 d8 aa 3c cb eb 38 3d
       -0.37666786 0.052669805 0.020855086 0.045146745
000030 cb 0d c2 3c 00 0c c6 3d 05 6d 3b 3e aa d1 a2 3d
       0.023688218 0.096702576 0.18303306 0.079501465
000040 e3 56 1a bf 9e 3d 9c 3c d9 2e ae 3d cb 96 9f 3c
       -0.6028883 0.01907235 0.08505029 0.019481083
000050 fc ff 28 bf d6 fb e4 bd 74 b5 f4 3d 8d 9d d3 3d
       -0.660156 -0.111808464 0.11948672 0.10332785
000060 ed ff 40 3e 41 37 48 bd 5d 35 a5 3d 85 04 93 3d
       0.18847628 -0.04888082 0.08066819 0.071785964
000070 67 c9 ec bc b4 54 ee 3c 22 7d 32 3d ce 50 79 bd
       -0.02890463 0.029093124 0.043576367 -0.060868077
000080 78 bc 31 3d d4 70 70 be 16 c7 ba be 7b 48 fb 3a
       0.04339263 -0.2348054 -0.36480016 0.0019171381
000090 6b 2a d6 bc bb 66 ce be f8 f4 d6 3d 0b 8b 1a be
       -0.026143273 -0.40312752 0.10495943 -0.15092103
0000a0 c3 27 12 be ea cd 75 3d a1 c3 c8 3d 5b 1c cc be
       -0.1427298 0.060010828 0.09802938 -0.39865384
0000b0 a2 17 01 3e 02 97 65 3e ed ca c2 bc 4d 46 e8 3d
       0.12606671 0.22420886 -0.023778403 0.11341534
0000c0 5c 2a fd be 90 b5 2d 3d 64 2e a7 be b6 d5 ef bd
       -0.4944638 0.04240948 -0.3265258 -0.11710684
0000d0 1b 7f 2c 3e 5e ee 45 3d 30 41 bb 3e bb 3c 17 bd
       0.16845362 0.048323028 0.36573172 -0.03692315
0000e0 66 5f c7 3b 8a fe 00 3d 13 f0 4a bf 8d 9b 2a be
       0.0060843704 0.031492747 -0.79272574 -0.166609
0000f0 4b d2 c0 be cf 0d 88 3e ca b3 99 3e d6 10 85 3c
       -0.3766044 0.26573035 0.3001998 0.01624338
000100 30 b6 c1 bd da 54 98 3d c0 c1 b1 bd 22 f2 be 3d
       -0.09458578 0.07438059 -0.08679533 0.09323527
000110 01 d4 a0 be 41 45 ec bc 18 c4 42 3e 52 70 da 3c
       -0.31411746 -0.028841617 0.19020116 0.026664887
000120 6e f6 08 bf dc 23 29 3e a5 ca 01 3e 9a b5 6d bd
       -0.5350102 0.16517586 0.12674959 -0.058034517
000130 9a e6 a3 3c aa af 21 be af 6e bc 3d 6e 64 ae 3c
       0.02000742 -0.15789667 0.09200799 0.021288123
000140 ad 1c ae bd ba a4 8d 3e 2a 7e 5f 3e 0a 47 44 3d
       -0.08501563 0.2766474 0.21825472 0.04791931
000150 c8 4d f7 3d ea 38 53 3e cc e6 4f be c7 1e 8f be
       0.120753825 0.2062718 -0.20302886 -0.2795317
000160 e0 dc a0 be 0a a3 5e be ad 5c 61 be 79 0d a6 3c
       -0.31418514 -0.21741882 -0.22008009 0.020270096
000170 85 57 ad bb 73 0b 39 be be 75 c9 3c a8 e3 21 bc
       -0.005289974 -0.18070774 0.024592277 -0.009880938
000180 b3 c9 ab bb 61 b8 80 be 30 44 1f 3d d5 dd 83 be
       -0.0052425503 -0.2514067 0.038883388 -0.25755182
000190 7f 37 40 3e 6c ca c6 3c 4e c9 8c 3e 59 c8 db be
       0.1877117 0.024266444 0.27497333 -0.4292629
0001a0 83 07 b9 3d e3 58 8b be 3d 87 82 be d7 e8 71 3e
       0.09034636 -0.27216253 -0.25493804 0.23623978
0001b0 34 31 4a be b4 58 f6 3c 45 e3 8f be 43 51 58 3e
       -0.19745332 0.030071594 -0.2810308 0.21124749
0001c0 06 8f 14 3e a3 e1 36 bf 35 f7 1e 3e 9a 22 48 be
       0.14507684 -0.71438044 0.1552399 -0.1954445
0001d0 31 70 99 be 16 f8 1b bf bb 4c 05 be 7c c7 e4 bd
       -0.29968408 -0.60925424 -0.13017552 -0.11170861
0001e0 ed fd 06 3e 8b 05 2b bf b1 37 0b bf e1 68 f2 3d
       0.13182802 -0.6680533 -0.54381853 0.1183641
0001f0 cf 11 6a bd d4 66 9e bd 77 a6 cb 3d 37 21 64 bc
       -0.05714589 -0.07734457 0.0994386 -0.013923935
000200 30 fb ff bb be 15 69 3d db 7c 6c 3d 9a ef 65 3e
       -0.0078119263 0.0569055 0.05773626 0.22454682
000210 34 77 15 3d 6d e8 b7 be 53 64 c1 be c5 64 07 bf
       0.036490634 -0.35919514 -0.37771854 -0.5288814
000220 67 bd cc 3b af 10 05 bb cc a7 8c be f0 f2 c3 be
       0.0062481645 -0.0020304134 -0.2747177 -0.38271284
000230 0c 28 83 be 1b 9e 92 be 62 9f 83 3e a4 80 51 3d
       -0.2561649 -0.2863625 0.25707537 0.051148072
000240 85 b8 47 3e a3 b3 09 bf 11 70 32 3e 7e 47 8a be
       0.19503982 -0.5378973 0.17425562 -0.2700767
000250 61 04 ac be ad c9 79 bd fa 32 4c 3e 65 d3 31 3d
       -0.3359709 -0.06098335 0.19941321 0.043414492
000260 d4 28 08 3e 17 79 ed 3b bc 99 84 3d c2 3a 00 be
       0.13296825 0.007247101 0.06474635 -0.12522414
000270 8f 2c 34 be 56 47 0d 3d bd bf e7 bd 75 67 a3 3d
       -0.17595123 0.03449186 -0.11315868 0.07978717
000280 cd 32 24 3e a6 04 f5 bc 3e 39 6f 3d 13 82 8f bd
       0.16035004 -0.029909443 0.0584042 -0.070072316
000290 5d 7e 83 3d 62 ad eb 3d c5 37 94 bd 0d 63 86 3e
       0.06420586 0.115076795 -0.072372 0.26247445
0002a0 d7 79 10 be cd 56 9d be 78 ce da bd 67 5f a5 3d
       -0.14108978 -0.30730286 -0.10683912 0.08074837
0002b0 53 56 ca bd d5 bd b6 3e 3f fc 10 3e be f5 cc 3d
       -0.09879746 0.35691705 0.14158724 0.10007809
0002c0 87 9a 39 3d 43 29 00 be cc 7d 29 3e ef 38 47 3e
       0.045313384 -0.1251574 0.16551894 0.19455312
0002d0 fd c0 d2 3c 8c 78 f2 be 2f 54 8b 3e 01 c3 be 3d
       0.02572679 -0.47357595 0.27212664 0.09314538
0002e0 73 a0 86 bd 0f 8b f6 3d d8 b2 18 bd 88 00 59 bd
       -0.06573572 0.12038242 -0.037279934 -0.052979022
0002f0 e9 59 94 3e fc 89 33 be cb 3e 0c be 8b 58 55 bd
       0.28974846 -0.17533106 -0.13695829 -0.052086394
000300 8d 1c 63 bd b0 ca 92 3b 70 2c 16 bd b8 d2 d5 bd
       -0.05544715 0.0044797286 -0.036663473 -0.10440582
000310 89 27 ab be ff 5f e4 bc 89 15 1b be 1a 2b 42 bc
       -0.334286 -0.027877806 -0.15144934 -0.0118510965
000320 8e b4 f3 3e 45 de 28 be 9b c3 04 3e 4b 99 0d 3e
       0.4759869 -0.16491039 0.12965243 0.13828008
000330 e3 84 f9 3c 42 d8 ac be 5d 6d 09 bf f2 a2 90 3e
       0.030458873 -0.33758742 -0.536825 0.28249317
000340 a1 e4 4b 3e c7 b6 a2 bb d0 59 8c be ad 44 4a 3d
       0.19911434 -0.0049656364 -0.27412271 0.0493819
000350 3c ad 10 bd 03 15 44 3e 9e f9 e6 bc e7 72 49 3e
       -0.03532146 0.1914864 -0.028195199 0.19672738
000360 56 9f 09 3e 52 95 63 bc f7 68 d5 bc 7c e9 99 3d
       0.13439688 -0.013890581 -0.026051028 0.07515237
000370 57 da d2 3c 79 ce 4e 3d 53 48 b9 bd 5b f5 5f 3d
       0.025738878 0.050489876 -0.09046998 0.05467735
000380 3f 1a a8 bd ca 04 69 3e c5 c6 4d be 0a 47 82 3d
       -0.08208131 0.22755733 -0.20095356 0.06361206
000390 a0 5c 06 3e 28 d7 b6 3e 10 c3 85 3d 48 85 00 be
       0.13121271 0.35711026 0.06531346 -0.12550843
0003a0 45 d1 e9 3c 05 3a f4 3d 1e 63 04 3e 75 dd fc 3d
       0.02854217 0.11925129 0.12928435 0.12346927
0003b0 36 e2 a2 bd 2a 67 e6 3e 86 45 65 be 9c 36 af be
       -0.079533026 0.45000583 -0.22389802 -0.3422135
0003c0 65 99 90 be ba ba e3 3c ba 36 7d be 10 ef 43 3e
       -0.2824203 0.027799 -0.24727908 0.19134164
0003d0 60 b5 27 bd ec 07 48 3d 75 68 24 3e 27 d4 6d 3d
       -0.040944457 0.04883568 0.16055472 0.058063652
0003e0 c7 6b 80 be d9 c9 06 3d 6d 0d 3a 3e f6 dd 98 be
       -0.25082228 0.03290734 0.18169184 -0.29856843
0003f0 cd fe e6 3d 51 e2 86 3c ef 6b 78 3e 6c c6 79 be
       0.11279068 0.016465338 0.24259923 -0.24392098

fc2.bias f4 [10]
000000 bb ad 21 bd e4 a1 27 be dc 85 e5 bd 04 2c af bd
       -0.039472323 -0.1637035 -0.11207172 -0.08553317
000010 1b 01 eb 3d a1 bf 47 3b 75 30 54 bc 46 ab f9 bd
       0.1147482 0.003047921 -0.012951006 -0.12190871
000020 91 7d 95 3e cd 80 c8 3c
       0.29197362 0.02447548
